src/controller/models/dqn_agent_local.pth (torch, 42741 bytes, 6 tensors)

layers.0.weight f4 [64, 6]
000000 a1 45 e5 bd 7b 0c b1 3e e0 e9 9e bc ee 9b c9 3c
       -0.11194921 0.34579834 -0.01939863 0.024610486
000010 76 62 08 bf e2 45 98 3e 8c b6 96 3e 16 9a 20 3e
       -0.5327524 0.29740816 0.29436147 0.15683779
000020 78 d0 50 3e 10 07 2a 3e 54 9d f1 be 77 d7 8e 3d
       0.20392025 0.16604257 -0.47190344 0.069746904
000030 62 df af bd 47 e8 86 bd bc fd cc bd ff e3 80 3d
       -0.08587529 -0.06587272 -0.100093335 0.06293487
000040 20 0e 9e be 46 95 07 3f 5d 01 60 3e 30 60 c8 be
       -0.30870152 0.5296215 0.2187552 -0.39135885
000050 f8 0a 25 be cb f9 96 3e 06 f3 9d 3e 4c e3 d9 3d
       -0.16117465 0.29487452 0.30849475 0.106390566
000060 af e2 b0 be a4 c1 da bd c5 e4 0e 3e 73 63 48 3e
       -0.34547946 -0.10681465 0.13954456 0.19569187
000070 e4 dc 76 3d 27 ea c5 be ba 48 02 3e 07 3d ef bd
       0.06026925 -0.38655207 0.12723055 -0.11681562
000080 4a f2 d2 3e c0 73 df be 22 b2 c0 3d 54 3f 15 3f
       0.41200477 -0.43642998 0.09408976 0.58299756
000090 43 f4 48 be 38 dd d2 bd 03 15 12 3e 67 44 0c 3e
       -0.19624428 -0.102961004 0.14265828 0.13697968
0000a0 59 b6 84 3e 91 e5 90 3e 0d e4 8b 3e 21 52 0f 3e
       0.2592037 0.28300145 0.27322426 0.13996173
0000b0 ed 01 f1 3e cd ca a4 be 8e a1 d0 3d 31 99 69 bd
       0.47071782 -0.32185975 0.10187064 -0.05703086
0000c0 bd 24 0f 3e 38 d8 92 bc 77 8b af be 1d c6 29 3e
       0.13978858 -0.017925367 -0.3428609 0.1657948
0000d0 d0 d5 8e 3e c8 33 45 be 79 a9 c3 be c0 87 14 3e
       0.278975 -0.19258034 -0.38215235 0.1450491
0000e0 f3 9b 95 bd 61 bd 44 3e eb d7 65 be 60 43 6a be
       -0.073051356 0.19212867 -0.22445647 -0.22877264
0000f0 7e 73 9a be 68 97 a3 be 64 d6 be be 48 45 38 3e
       -0.3016624 -0.3195145 -0.37272942 0.17995179
000100 e2 b8 a8 be 5a 98 e4 3b c2 cb a7 be d2 5e ac be
       -0.32953554 0.0069761695 -0.32772642 -0.33666092
000110 ee 1f 17 be 5a f7 10 bd 82 88 24 3e bf 14 1a bc
       -0.14758274 -0.035392143 0.16067699 -0.00940436
000120 fe 77 4b bd be f5 a3 bc 2b e4 55 3d 59 32 ed bc
       -0.04967498 -0.02001464 0.05221955 -0.028954672
000130 e1 95 fc be 87 1a 6d 3e 73 9c 72 be 46 4a 77 3e
       -0.493331 0.2315465 -0.23692493 0.24149427
000140 03 ae 14 3f 80 97 47 bd 3c f1 ee be d7 dc 07 be
       0.5807802 -0.048728466 -0.46668422 -0.13267837
000150 62 19 a2 be ad da 58 be fe 4f cb 3e 8f 2f 90 3e
       -0.3165999 -0.21177168 0.39709467 0.28161284
000160 8e 0a 03 be 23 d8 4a be e0 99 71 3e 93 fc 8d 3e
       -0.12796995 -0.19809012 0.23593855 0.2773176
000170 81 96 49 bd 8b 06 79 be 73 24 de 3d ef 62 1f 3c
       -0.049215797 -0.24318902 0.10846796 0.009728177
000180 18 4a 77 3e f5 d9 1a be 4e a1 df 3e 3e c8 3c be
       0.24149358 -0.15122207 0.43677753 -0.18435761
000190 fd f6 e0 be e0 8a 6a be 55 a1 b5 be 4a dc 84 3d
       -0.43938437 -0.22904539 -0.3547465 0.06487329
0001a0 af e5 87 be 30 50 a9 be 9c e6 49 3e 3c a0 f8 bd
       -0.26542422 -0.3306899 0.19716877 -0.12139937
0001b0 51 ca 80 3e 8a 14 b7 bb 8c ac 39 3e 84 f5 0a bf
       0.25154355 -0.0055871652 0.18132228 -0.5428088
0001c0 0a 64 f3 be 5c d4 ee 3e b8 e7 c0 3e 05 8a 82 be
       -0.4753726 0.46646392 0.37676787 -0.25495926
0001d0 8c b4 00 3d 5f e9 cd 3e 50 f7 2c be ab 50 a8 bc
       0.031422183 0.4021711 -0.16891217 -0.020546278
0001e0 25 6e 9d 3e 89 e3 82 3e dd a3 83 3e 23 09 8a 3e
       0.30748096 0.2556422 0.25710955 0.26960096
0001f0 51 d9 08 3e 02 b2 8e be 8d 67 bc bd 97 c1 d0 bd
       0.1336415 -0.27870184 -0.09199438 -0.10193174
000200 0e 1a 9a be 70 44 fe bd ac f5 34 3e f7 00 8d be
       -0.30098003 -0.12415397 0.17671841 -0.275398
000210 f5 2d ac 3c 78 00 86 bd 42 9a 0e 3f 77 c6 dd be
       0.021018008 -0.06543058 0.5570413 -0.4331548
000220 df f6 e4 3d af 97 0d 3f d4 f3 bb be 67 5d 7a 3d
       0.111798994 0.55309576 -0.36709464 0.06112423
000230 c3 88 d6 3e 76 ff 88 be ca 83 f5 bc d4 90 d9 3e
       0.41901216 -0.267574 -0.029970068 0.42493308
000240 69 14 99 3e ea be a6 be 41 87 38 be ea d0 a2 3e
       0.29898384 -0.3256753 -0.18020345 0.31800014
000250 62 63 d2 bc 5c b7 43 be 91 d2 90 3e c3 52 84 bd
       -0.025682155 -0.19112915 0.2828565 -0.06461098
000260 6c 1b fe bc 88 c3 1b 3e ac 01 21 bd d6 37 c8 3e
       -0.031018935 0.15211308 -0.039308235 0.391051
000270 1e af 95 3e 84 65 9a be 9a 06 51 3e b8 96 02 bf
       0.29235166 -0.30155575 0.20412675 -0.5101123
000280 cd 1a 79 bd e9 2e dc 3c 5a 74 c9 3e 6d 8b c3 3e
       -0.060816575 0.026877837 0.39346582 0.3819231
000290 03 8b 70 be c9 02 f5 bd fa 81 e4 3d 94 d0 1f be
       -0.23490529 -0.11963422 0.111576036 -0.1560691
0002a0 72 0e 9e be d8 06 b9 be 48 81 6f bd 29 10 c5 3d
       -0.30870396 -0.36138034 -0.0584729 0.09622223
0002b0 2b 52 34 3d 01 8b 2f 3e 86 eb 96 bd 1a 1b 99 3e
       0.044023674 0.1714287 -0.07369141 0.2990349
0002c0 4f ba 63 bd 2c da eb be da 86 f8 bd 7c 16 8e 3e
       -0.0555976 -0.4606489 -0.12135096 0.2775153
0002d0 08 4e 90 be 40 5f 94 3e 7a 55 52 be 02 ef b4 be
       -0.28184533 0.2897892 -0.20540419 -0.35338598
0002e0 de 5a 00 bf 45 ee f9 3e f4 7b c9 3e 7b 89 36 3e
       -0.5013865 0.48814598 0.3935238 0.17825882
0002f0 7f 00 0f 3f 12 bb e3 3c e3 4f a7 be c8 b0 94 3e
       0.5586013 0.027799163 -0.32678136 0.29041123
000300 23 dc 9f bc b3 eb c4 3d 36 b1 07 3e aa 73 9a 3a
       -0.019514149 0.096152686 0.13251194 0.0011783738
000310 cc 46 55 3e a2 b9 90 3d 4e 14 8b be fd c6 15 3d
       0.20827788 0.07066657 -0.2716393 0.036566723
000320 32 55 5b 3d 83 28 9b 3e 35 1b 3d 3e d1 db 97 3e
       0.053548045 0.30304345 0.1846741 0.29659894
000330 6b fd 5c 3c 27 8a ae be 38 66 b6 3e 9f 56 b1 be
       0.013488154 -0.34089777 0.35624862 -0.346364
000340 43 df f8 be 92 65 51 bc 53 41 99 bd 39 cb 22 3e
       -0.48607835 -0.012780564 -0.07483163 0.15897836
000350 41 a2 5b be 07 26 05 3e 37 70 05 3e 41 9c ee bc
       -0.21448614 0.13002788 0.13031088 -0.029127242
000360 6a f8 a8 be 3c 05 d0 be b8 94 3b 3e 2c 3b 68 be
       -0.33002025 -0.40628994 0.1831845 -0.22678822
000370 bd 94 a6 3e df bb 44 be 0e 45 33 3e ff ae a5 be
       0.32535353 -0.19212292 0.17506811 -0.32360074
000380 a2 73 dc 3d 57 70 82 bd 07 5d ca 3e 38 f6 80 3e
       0.10764243 -0.063690834 0.395241 0.2518785
000390 49 71 4a 3d 36 f5 99 3c b2 8f db 3d 51 cf c3 bb
       0.049424443 0.018793683 0.10720767 -0.005975642
0003a0 a1 75 b6 be b7 37 25 3e 2b a3 ef bd 59 46 9a 3b
       -0.3563662 0.16134535 -0.11701044 0.004708093
0003b0 54 f5 b8 bd 56 6f f2 3d dc 3d 0e 3e 49 c0 c2 3e
       -0.090311676 0.11837642 0.13890785 0.38037327
0003c0 45 1b 27 3d 11 36 f6 3d cf f4 8d 3e d2 d7 c5 3e
       0.04079749 0.12022031 0.27725837 0.3864122
0003d0 40 11 64 3e ab 79 3c 3e ab 60 c5 3e a4 3e 2d be
       0.22272205 0.18405788 0.38550314 -0.16918427
0003e0 ea 58 b9 be 4b 2e 2b bd 32 d9 cf bd 16 cd 6c 3e
       -0.3620065 -0.041792195 -0.101488486 0.23125109
0003f0 d8 ba 7d 3e af 74 5b 3e 77 18 53 be ff 82 12 be
       0.24778306 0.2143123 -0.20614801 -0.14307784

layers.0.bias f4 [64]
000000 81 06 c9 3e c7 df f0 3e 42 1a 03 3f 37 65 92 be
       0.39262775 0.4704573 0.5121194 -0.28592846
000010 92 b7 a0 3c 21 19 4f 3a 57 53 ba 3e a1 cd 44 3e
       0.019618783 0.0007900168 0.36391708 0.19219066
000020 dc 52 60 bd ab 0c 85 3e 8f 4f 12 bc 45 b9 cd be
       -0.05476652 0.25986227 -0.008930101 -0.40180412
000030 b7 61 d4 3e 6d cb 06 3f 85 e6 c7 be 16 09 dc 3e
       0.414808 0.52654153 -0.3904306 0.42975682
000040 b1 3a 12 3f cb 04 86 3e 48 a8 06 3e 8b 2f ab bd
       0.57120806 0.26175532 0.13150132 -0.083586775
000050 df 39 c8 3d fe d3 6a bc 81 6b 9e bb b5 7a c9 3e
       0.09776663 -0.014332769 -0.004834593 0.3935143
000060 c2 9a c7 be 4f 2d de 3e 51 bb 85 3e e0 18 2e 3d
       -0.38985258 0.43393943 0.26119474 0.04250419
000070 e7 94 af bd 10 48 84 3e 0a 99 ce 3e 93 53 e5 3c
       -0.08573323 0.2583623 0.40351135 0.027993953
000080 fc 99 32 be 21 28 ce be 47 4b 42 bd 77 cd 71 bc
       -0.17441553 -0.4026499 -0.04743507 -0.014758459
000090 83 f9 74 be 0c 3b 93 be df 49 03 3f 51 7f e6 bd
       -0.23923306 -0.28755987 0.51284593 -0.112547524
0000a0 0a 5d 65 be 60 13 13 be 35 b6 b2 be fe 6f 55 be
       -0.22398773 -0.1436286 -0.34904638 -0.20843503
0000b0 7b bd 2c be c6 dc 3f be 0b a6 a7 3e 52 f5 cd be
       -0.16869156 -0.18736562 0.32743868 -0.40226227
0000c0 05 e6 93 be ac 47 13 bd ae 89 c9 3d 55 6f 33 bd
       -0.28886428 -0.035957024 0.098407134 -0.043807346
0000d0 61 78 b3 be 7a 3c de 3e c3 f2 14 3f 0a 2c 3b be
       -0.3505278 0.43405515 0.58182925 -0.18278518
0000e0 b5 4d bb be 34 27 0a 3e 1b a9 04 3f ba ea 6c bd
       -0.36582723 0.13491517 0.51820534 -0.05784104
0000f0 ab 36 04 3f 5c 00 af be 12 d9 b1 be 5c 9e 06 be
       0.51645917 -0.34179962 -0.34735924 -0.13146347

layers.2.weight f4 [64, 64]
000000 2c d2 00 be 38 91 8c 3d bc 65 96 3c 40 cb 8e bd
       -0.12580174 0.06863636 0.018359058 -0.069723606
000010 88 a7 16 3d 1b a1 0d be d1 00 d4 3d 5e 69 0d be
       0.036780864 -0.13830988 0.10351718 -0.13809726
000020 72 b5 db bd e3 f4 87 bd 48 d5 76 3d 7c f0 7d bd
       -0.10727967 -0.06638505 0.060261995 -0.061996922
000030 ee 12 46 bd 6f 35 6f bd 80 59 55 bc 1f 8a b6 3d
       -0.048357897 -0.058400568 -0.013021827 0.08913063
000040 77 de 8d 3c f8 7f 22 3d d7 a3 35 3b 74 54 74 3d
       0.017317994 0.03967282 0.0027716064 0.059650853
000050 10 c4 10 3c 30 d6 67 3c 13 74 a4 bd ea 21 87 3d
       0.008835807 0.014150187 -0.08029952 0.065982655
000060 d4 53 ec bd c9 2b 02 bd 12 52 58 3d 80 8a 0c 3d
       -0.115394264 -0.031780038 0.052812643 0.03431177
000070 80 76 11 3d 8e 28 80 3d 48 4e 33 3d dc a9 a7 3d
       0.0355134 0.06257735 0.043775827 0.08186695
000080 d0 83 a0 bd 8a 98 db 3d ed 9c 38 3d dc 35 c2 3d
       -0.07837641 0.10722454 0.04507153 0.09482929
000090 66 e0 c8 bd 32 03 db bd fc 31 20 bd 6a 94 ea bd
       -0.098084256 -0.10693969 -0.03911017 -0.11454089
0000a0 a0 9e 19 3d e0 d0 01 bc 58 81 b2 bd bc 23 0f 3d
       0.037504792 -0.007923335 -0.087160766 0.03494619
0000b0 d3 11 3f bc 00 ef 46 bc 15 90 21 b9 a0 23 e6 bd
       -0.0116619645 -0.012141943 -0.00015407831 -0.11237264
0000c0 f4 e0 16 bd 9c 43 90 3d 94 45 70 bd 0c 4a aa 3d
       -0.036835626 0.070441455 -0.058660105 0.083149046
0000d0 b4 f7 35 3d 81 1b 4c 3c bf 68 e8 bd 22 19 b2 3d
       0.04442568 0.012457729 -0.11348104 0.086962
0000e0 04 67 02 3d c4 5a a5 bd c5 ad a6 3d d4 78 0e be
       0.031836525 -0.08073953 0.08138613 -0.1391328
0000f0 67 cd ff 3c 86 80 87 bd d0 7a d5 3c 0c 9a 80 bc
       0.031225873 -0.06616311 0.026059538 -0.015698455
000100 56 27 be bd dc 3d a6 bd 54 58 93 bd 1e b9 d2 bd
       -0.092848465 -0.081172675 -0.07194582 -0.102892146
000110 a4 6d 4f 3d 2c 18 57 3d e4 84 4b bd 0f 45 b4 bd
       0.05064167 0.052513286 -0.04968728 -0.088022344
000120 02 41 8a 3d 2b b4 e1 3d 70 b5 b7 3c 98 b1 cb bd
       0.067506805 0.110206924 0.022425383 -0.09945983
000130 fe 2b 45 3c d5 bf e4 bc 18 85 3b 3d b8 54 00 be
       0.012034414 -0.027923504 0.045781225 -0.12532318
000140 cd fa a0 3d 60 58 94 bd 9d 5e d9 3d 20 fb 80 3b
       0.078603365 -0.07243419 0.10613749 0.0039361864
000150 a0 d9 a9 bc 82 d9 d8 bd 8d f5 55 3d 06 ef d9 3d
       -0.020733654 -0.10588361 0.05223613 0.10641293
000160 10 10 10 bd f1 1d 1b 3d c0 f6 33 bd b2 b0 fb 3d
       -0.03517157 0.03787035 -0.04393649 0.12289561
000170 cc dc ab 3d c5 59 03 be 41 29 f0 bb 04 ee 2d bd
       0.08391723 -0.12827213 -0.0073291366 -0.042463318
000180 58 ba ff bc 90 ce 68 3c b9 b5 c2 3d 28 4e f5 3c
       -0.031216785 0.014209405 0.09507317 0.029944494
000190 96 61 90 bd ca d1 c7 3d e8 24 9a 3d 18 31 9b bc
       -0.07049863 0.09756811 0.075265706 -0.018944308
0001a0 7c 20 88 bd d0 e2 f5 3d 9c b8 e4 3d 8e 65 e5 bd
       -0.06646821 0.12006152 0.11168024 -0.11201011
0001b0 e4 32 71 3d b0 b8 b0 3d 2a 7d 21 3d 50 33 ad 3d
       0.058886424 0.08628976 0.039426006 0.08457053
0001c0 60 54 35 3c 48 9b 9f bc 94 71 39 bd 6a bf c3 3d
       0.01106748 -0.019483224 -0.045274332 0.09557994
0001d0 38 aa e9 bc a5 0b 49 bb 4c 5c 9f bd 5e 5b fc 3d
       -0.02852355 -0.0030677107 -0.07781276 0.123221144
0001e0 9a fc 8b bd 40 56 89 bb a4 84 0c 3d b4 e7 fd bd
       -0.06835289 -0.00419119 0.034306183 -0.123977095
0001f0 02 59 e7 bd 40 ea 66 bc 20 56 d3 bb fa 35 8a bc
       -0.11296274 -0.0140939355 -0.006449476 -0.016871441
000200 54 e2 96 bd a0 93 49 bd f0 a8 8b bd 2c 3b a6 3d
       -0.073673874 -0.04921305 -0.06819332 0.08116755
000210 18 89 c4 3c c4 05 59 bd 98 33 f9 bd 40 01 bf bc
       0.023991153 -0.052984014 -0.12168044 -0.023316026
000220 78 12 30 bd 2a 6d f9 bd 12 6a c3 3d 80 6c f6 3d
       -0.042986363 -0.121790245 0.09541716 0.120324135
000230 f0 9b 65 3d 18 80 bd 3c 88 85 ad bc e0 3b 72 bc
       0.056056917 0.023132369 -0.021181837 -0.014784783
000240 d2 79 f9 3d 3e b8 c5 3d 14 ac e4 bd a8 02 85 3d
       0.121814385 0.09654282 -0.11165634 0.06494647
000250 90 fe 12 3d fc 2c 60 bd 30 d2 5a 3d 20 d4 d9 bb
       0.0358873 -0.0547304 0.053423107 -0.0066476017
000260 9c 72 9d 3d 00 e6 9d 3b 98 5f de bd 70 00 62 3c
       0.07687876 0.004818678 -0.10858077 0.01379405
000270 64 8d 92 bd 50 df 19 bc f0 2e 7d bc 70 46 d4 3d
       -0.07155874 -0.009391621 -0.015453085 0.103649974
000280 2a f4 ff 3d e6 56 b2 bd f6 38 e5 3d d4 e2 5c bd
       0.124977425 -0.08707981 0.11192505 -0.053927258
000290 a4 4f c9 3d e2 0e c0 bd 38 6f 4e bd 04 d4 a6 3d
       0.09829643 -0.09377839 -0.050399035 0.081459075
0002a0 38 f9 d8 bd c6 22 cc bd 4a be 95 3d 90 7d 8d bd
       -0.1059441 -0.0996757 0.073116854 -0.06908715
0002b0 ec 47 69 bd 9a ad 98 bd 72 df e7 3d 9a aa 88 bd
       -0.056953356 -0.07454987 0.11321916 -0.06673165
0002c0 48 1d 49 3d 52 00 d9 3d 60 d9 0e 3d 0e 0a 81 bd
       0.04910019 0.10595764 0.034875274 -0.06300746
0002d0 20 0d e7 3b 64 1b 90 bd 34 89 ab bd e4 39 a4 bd
       0.007051125 -0.07036474 -0.08375779 -0.08018854
0002e0 a0 f4 f0 bc c0 fb f3 3b 48 4c 93 3d 52 83 c1 3d
       -0.029413521 0.0074457824 0.07192284 0.094488755
0002f0 76 3b ff bd 62 bf ee 3d 00 b2 fb bd 3a 85 c3 bd
       -0.12462513 0.11657597 -0.1228981 -0.09546895
000300 54 68 d9 3d f2 6a 28 3e 2e 01 87 3e 10 93 f6 3d
       0.10615602 0.16447046 0.26368088 0.12039769
000310 a4 ad 04 3d 5a ae 66 3d 35 a5 72 3d 07 61 78 3e
       0.03239216 0.05631862 0.059239585 0.24255763
000320 18 76 01 bd a0 4f 99 bd 40 cb 57 3d 9a a4 b7 3d
       -0.031606764 -0.074858904 0.05268407 0.08966942
000330 d5 3f 28 3d 00 6b 0f 3e d4 8b 35 3d 5e 6a 79 3e
       0.0410765 0.14005661 0.044322804 0.24356982
000340 a1 ac 81 3e 5a 98 e9 3d 0c 88 1f 3d 3a 2d c8 3d
       0.25327018 0.11406012 0.038948104 0.09774251
000350 08 a2 9f bd cc c4 43 bd 4c ed 3e 3e 46 3e 80 3e
       -0.07794577 -0.047795102 0.18645209 0.2504751
000360 6e cf d6 bd ce 02 a7 3d 57 e1 4a 3d c8 af c9 bd
       -0.10488783 0.08154832 0.049531307 -0.09847981
000370 fa cf 85 3d 9f 23 49 3d ce 23 c7 3d 4b c4 78 3e
       0.06533809 0.049106237 0.09723626 0.2429363
000380 78 d3 fb bc 50 a7 a2 3c ea 03 93 3e d4 f6 e1 3d
       -0.030740485 0.019855171 0.28713924 0.11033407
000390 b8 3c 59 bd 94 bd f5 bd 43 fa 2f 3e e8 56 29 bd
       -0.05303642 -0.1199905 0.17185311 -0.041342646
0003a0 28 ac d0 bd c0 b4 b1 bb d2 5a ad bd b2 20 99 3d
       -0.10189086 -0.0054231584 -0.08464588 0.07476939
0003b0 a2 5f 44 3e ba a9 e4 bd 97 46 95 3d 48 b5 84 3d
       0.19177106 -0.11165185 0.072888546 0.06479889
0003c0 70 30 ea bd 98 e0 ee 3c 4c 05 e9 3d 08 b3 d5 bc
       -0.1143502 0.029159829 0.113779634 -0.026086345
0003d0 e8 6a ff 3c 5e 20 f1 3d 1d 10 c8 3d 20 a1 b5 3b
       0.031178907 0.11773752 0.09768698 0.0055428892
0003e0 34 1b 04 3d a8 81 ac bd 67 e4 40 3e 24 54 7a 3e
       0.032252505 -0.084231675 0.18837129 0.2444616
0003f0 dd 47 df 3d 24 fc 5b bd 80 56 39 bb 88 5c 40 3e
       0.10902379 -0.053707257 -0.0028280318 0.18785298

layers.2.bias f4 [64]
000000 ee f2 33 bc 7d 31 55 bd 00 21 b1 3b 70 9c 58 3e
       -0.010983212 -0.05204915 0.0054055452 0.21153426
000010 ae 7a dc bd 45 5c 14 3e 17 c3 6d 3e 4a 28 c0 bc
       -0.10765587 0.14488323 0.23218952 -0.023456711
000020 4e 16 c3 3d 54 34 4a 3d 35 3f 0a 3e d0 af 22 3c
       0.09525739 0.04936631 0.13500674 0.009929612
000030 9f 40 f5 3d ba 16 95 3d 40 46 d5 bd 26 96 08 3e
       0.11975216 0.072797254 -0.1041379 0.13338527
000040 a8 dd 23 3e 4c d1 bc 3d 54 e3 f0 bd 17 13 de 3d
       0.16002524 0.09219608 -0.117621094 0.10843485
000050 68 4a e2 3d 84 8b 0f 3e a4 12 80 3e 83 ee 29 3d
       0.11049348 0.14018065 0.25014222 0.041487228
000060 a0 84 de bc 06 61 af 3d 0a 28 dc bd 9f ff a4 3d
       -0.02716285 0.085634276 -0.10749824 0.08056568
000070 f8 c9 5a 3d 87 8c 7c 3e f4 ec 2f 3d 8c 77 ff bd
       0.05341527 0.24662982 0.042950585 -0.12473974
000080 eb 75 bd 3d 86 b2 e4 bd 30 bc 52 bd 4d 44 73 3e
       0.09251007 -0.11166863 -0.051449 0.23756523
000090 c9 5c 66 3e d1 85 97 3d d2 b5 c0 3c 9b 3e 67 3e
       0.22496332 0.0739857 0.023524199 0.22582476
0000a0 a0 ea e4 bb 77 43 a0 bd 02 19 47 bd 76 0f d1 bd
       -0.0069859773 -0.07825368 -0.048607834 -0.10208027
0000b0 d1 aa f2 3d ca 24 93 ba 52 c4 ba bd 78 58 f4 3c
       0.11848987 -0.0011226174 -0.091194764 0.029827341
0000c0 96 34 be 3d cb 84 08 bd 14 3a fc bd d4 fc 47 bd
       0.09287374 -0.033329766 -0.12315765 -0.0488251
0000d0 8d 11 49 3e 2f 04 37 3e f0 86 e6 bc 81 43 90 bd
       0.19635601 0.1787269 -0.028140515 -0.07044125
0000e0 a0 f3 d4 bd a7 df 84 3d 28 22 d2 3d d8 bd ac bd
       -0.1039803 0.06487971 0.10260421 -0.08434647
0000f0 6c 3e 4d bd a4 2b d9 bd b2 cf ae bd 80 d4 c0 bd
       -0.05010836 -0.10604027 -0.085357085 -0.09415531

layers.4.weight f4 [81, 64]
000000 1a ad f0 3d ec 09 24 3d 34 5f f4 3d 1d 41 7e bd
       0.117517665 0.040048525 0.11932221 -0.062073816
000010 aa 29 94 3d 0d 66 58 be ff 0f 44 be 98 92 89 bc
       0.07234509 -0.2113268 -0.19146727 -0.016793534
000020 c8 b7 31 bd ac 54 58 bd 64 ce d1 bd 50 0e 62 3c
       -0.043388158 -0.052815124 -0.10244444 0.013797358
000030 8f 0b af 3c 70 88 1b 3c 58 c8 81 3c ee 3b 88 bd
       0.021367816 0.009492978 0.015842602 -0.06652056
000040 46 50 ac bb 6c 03 9d bd e0 c0 cb 3b 05 33 1d be
       -0.005258593 -0.07666668 0.006218061 -0.15351494
000050 78 68 45 3d b0 78 60 be 55 9e 33 be d6 32 92 3d
       0.048195332 -0.21921039 -0.17540868 0.071386024
000060 68 01 b8 3c d2 c1 d8 3d c8 39 cd 3d d7 d1 27 be
       0.022461608 0.10583843 0.100207865 -0.16388641
000070 00 0c a8 39 0e c4 4e be 44 bb b6 bd a3 c4 fb bd
       0.00032052398 -0.20191976 -0.08922437 -0.12293365
000080 80 41 5d 3d 20 b5 e1 bc 60 85 fa 3d b7 ac 27 be
       0.054017544 -0.027552187 0.122324705 -0.16374479
000090 12 08 b6 bd 08 65 36 bd ca be 99 bd b4 e2 45 3c
       -0.08888258 -0.044529945 -0.07507093 0.012077976
0000a0 14 92 65 bd c4 ca de 3d b8 c0 2e 3d a6 f1 d3 bd
       -0.056047514 0.10878518 0.04266426 -0.10348825
0000b0 c4 90 be 3d be b1 d2 bd 80 43 1f 3c 98 a8 0f 3d
       0.093049556 -0.10287808 0.009720683 0.035072893
0000c0 90 7c de 3c 8a 47 e5 bd f8 00 e2 bc 20 5a c3 3c
       0.027159005 -0.111952856 -0.027588353 0.023846686
0000d0 50 1d d1 bb 46 38 20 3c 42 de db 3d 7e 94 d0 3d
       -0.006381668 0.009779042 0.10735752 0.10184573
0000e0 ec 31 e8 3d 38 6a 40 be 48 17 43 be 42 41 98 bd
       0.11337647 -0.18790519 -0.1905185 -0.07434322
0000f0 4c 6b e9 3d 2c 42 bc bd e4 f0 3c 3d e0 90 6b bc
       0.113974184 -0.09192309 0.04612817 -0.014377803
000100 4a 3e e1 bd c0 e1 87 bd 5a 0e e9 bd 36 17 a3 bc
       -0.10998209 -0.06634855 -0.113796905 -0.019908529
000110 64 a0 ca bd 2d ad 93 bd 37 91 7f bd c8 29 40 3d
       -0.09893873 -0.07210765 -0.062394347 0.046914846
000120 08 6c c6 3c a4 4d 3f bd 7e c7 59 bc d6 6e a2 3d
       0.024221435 -0.046704903 -0.013292192 0.079312965
000130 b4 e3 59 be 80 b6 e1 bd e6 1f 8c bd 0e 3b 80 bd
       -0.21278268 -0.11021137 -0.06842022 -0.06261264
000140 b6 25 25 be e0 d1 10 3c b2 7e 93 3d 9e 29 0f bc
       -0.16127667 0.008839101 0.072018996 -0.00873795
000150 80 fe e9 3c 83 b1 cd bd 1f bf fa bd 8f 67 b1 3c
       0.028563738 -0.10043623 -0.12243485 0.021655826
000160 c0 0c 85 bc 70 bb 83 3d fc af fd bd 96 74 31 be
       -0.016241431 0.06432235 -0.12387082 -0.1732963
000170 4e c4 cf bd 5b 38 34 be ac f5 b8 3d c6 8f f3 3d
       -0.10144864 -0.17599623 0.09031233 0.11892657
000180 60 7d e1 3b 24 11 f0 bd da 91 ab bd cd 0b 51 be
       0.006881401 -0.11722019 -0.08377428 -0.20414658
000190 ae 96 2b be 31 ae 1d be 8e 77 b4 3d 61 92 89 bb
       -0.16756698 -0.1539848 0.08811866 -0.004198358
0001a0 00 c1 b7 3c 80 06 a5 bd 9a ff e6 3d 80 08 3d 3c
       0.022430897 -0.080578804 0.11279221 0.011537671
0001b0 8c 1f 3d bd c0 ab 3b bc 27 17 cc 3c ec c2 bc bd
       -0.046172664 -0.011454523 0.024913384 -0.09216866
0001c0 14 ae f6 3d 13 22 d4 bd ac e6 a7 3d 50 34 99 bc
       0.120449215 -0.10358062 0.08198294 -0.018701702
0001d0 87 c9 92 bb 75 90 b9 bc 9c ad aa 3d 62 4d ae bd
       -0.0044795903 -0.02265189 0.083338946 -0.08510853
0001e0 19 26 03 be fe 2a 59 bd 87 1b 55 be 98 33 f6 3c
       -0.12807502 -0.053019516 -0.20811282 0.030053899
0001f0 22 ec 87 bd 90 10 bd bd f0 94 1b 3d a4 c4 0c bd
       -0.06636836 -0.09231675 0.037983835 -0.03436722
000200 5e 05 92 bd ef f0 ca bd b8 2c bf 3d eb 30 72 bd
       -0.0712993 -0.09909236 0.09334701 -0.059128683
000210 a6 db b4 3d d3 ad 23 bc b1 b3 be bd 38 99 b9 bc
       0.08830957 -0.009990173 -0.09311617 -0.022656068
000220 38 5a a3 bd 40 7a 25 bc 02 bd d6 bd 40 dd de 3b
       -0.07976192 -0.010099947 -0.10485269 0.0068012774
000230 1c d0 41 3d 30 13 da bd 4c 95 38 3d a1 5e f4 bd
       0.04731761 -0.10648191 0.045064256 -0.119321115
000240 2b dd 0a be ba 4a c4 bd b0 d7 23 bd 7a ac 07 bc
       -0.13560931 -0.095845655 -0.040000618 -0.008280868
000250 c4 64 7a bd b3 4f 92 bb 43 4f e8 bc 4d 65 20 ba
       -0.061131254 -0.0044650673 -0.028358107 -0.00061186106
000260 64 9f 6c 3d 52 e5 fa 3d 66 f1 c9 bd 0a 91 ab bd
       0.057769194 0.12250771 -0.09860496 -0.083772734
000270 9e 67 d8 3d f4 e3 2b bc c6 e1 aa 3d 9c 52 25 bd
       0.105666384 -0.01049136 0.08343844 -0.040361986
000280 ac 62 ca 3d 46 c7 bb bd 9a dd 81 bd 6a 89 1e be
       0.098821014 -0.09168868 -0.06341095 -0.15482107
000290 e1 e4 35 be 4c 19 ce 3c a0 70 c2 3b 6c 45 28 be
       -0.17763092 0.025158547 0.005933836 -0.16432732
0002a0 d8 2b a4 bc a4 c9 9b bd ea 85 99 bd 80 44 63 3b
       -0.020040438 -0.07606819 -0.07496245 0.003467828
0002b0 82 6e df 3d 32 e6 df 3d 28 28 81 bd 82 a1 84 bd
       0.109097496 0.10932578 -0.06306487 -0.06476118
0002c0 3a ae 87 3d 18 3d 9a bc ee 9f a9 bd 62 ca e5 bd
       0.06625028 -0.01882796 -0.08282457 -0.11220242
0002d0 52 59 21 3d 64 8d 0a be 48 15 cd bd 62 1e d0 bd
       0.039391823 -0.13530499 -0.10013825 -0.10162045
0002e0 18 b4 ff 3c 90 b0 d6 bd 44 5a e6 bd e2 1a e8 3d
       0.031213805 -0.104828954 -0.112476856 0.113332525
0002f0 a2 ae c8 3d 80 8a 72 bd 71 f5 7b bd 48 a4 f3 3c
       0.097989336 -0.059214115 -0.061513368 0.029741421
000300 07 6c cd 3d 28 78 c7 3d 22 dd 88 bd b7 d3 6a 3d
       0.1003037 0.09739715 -0.06682803 0.057330813
000310 d2 0c c7 3d d5 7e 05 be 4a e6 4a 3a 40 70 f9 3b
       0.09719242 -0.13036664 0.0007740004 0.007612258
000320 64 94 db bd e8 18 63 3d 69 5e eb bd 42 bf bd 3d
       -0.10721663 0.055443674 -0.11492617 0.09264995
000330 01 b4 00 be 4b c4 39 3d 28 da 60 3d 67 ce b9 3c
       -0.12568666 0.045353215 0.05489555 0.022681428
000340 d9 f2 b1 bd e0 57 d9 bb 40 9c 75 bd 5f 1e 28 be
       -0.08688898 -0.00663279 -0.059963465 -0.16417836
000350 ac ae b7 3c c9 f3 30 bc 56 c4 ea bd 8e dc 9a 3d
       0.022422157 -0.01080031 -0.11463229 0.07561599
000360 2c 2d 52 3d 3e 79 a8 3d 28 d9 41 bd a9 18 79 3d
       0.05131261 0.0822625 -0.047326237 0.060814533
000370 90 e9 9a bc 6f 2a ef bd 0c 9e c1 bd 10 62 0f 3c
       -0.0189102 -0.116780154 -0.09453973 0.008751407
000380 df 7c 5a bd e0 0b 5a 3d 48 da 85 3d d4 fa ae bd
       -0.053341743 0.05323398 0.065357745 -0.085439354
000390 da 16 48 3d 51 48 c4 bd ca ef fb bc ec 54 1f bd
       0.048849918 -0.09584106 -0.030753989 -0.038899347
0003a0 0a 0a 9a 3d ae b8 82 3d cb b9 ba 3d ee 0e ab 3d
       0.07521446 0.06382881 0.091174684 0.08352457
0003b0 02 0d c3 bd 02 27 83 bd a0 75 89 3c 88 c0 12 bd
       -0.095239654 -0.064039245 0.01677972 -0.035828143
0003c0 88 27 73 bd 58 f6 69 3c 18 fa 9f bd 54 27 19 3d
       -0.05936387 0.014279924 -0.078113735 0.03739102
0003d0 98 2e e3 3c e4 fc 06 be 20 e5 81 3b 01 d7 ce 3d
       0.027732179 -0.13182408 0.0039640814 0.100996025
0003e0 d8 63 5a 3d 05 4d 81 bd 38 4d 0b be 0a 7f fa bd
       0.053317875 -0.063135184 -0.13603675 -0.12231262
0003f0 76 e6 e9 3d 42 44 ad bd b1 1f 61 bd 60 1e ea 3c
       0.1142091 -0.08460285 -0.054961864 0.028578937

layers.4.bias f4 [81]
000000 ee a3 42 be 7b 02 82 3d 60 00 0c be 70 ea 5f bc
       -0.19007847 0.06348129 -0.13672018 -0.013666734
000010 6a a1 c8 bc d0 29 10 be 51 7f e9 bd 8c 59 27 3d
       -0.02449103 -0.1407845 -0.11401237 0.040856883
000020 51 45 28 3c d7 d4 eb bc 4c 80 17 be b4 70 cf bd
       0.010270433 -0.028788013 -0.14795035 -0.10128918
000030 bc 10 f2 3c 5c aa 8b bd 78 59 82 3d 45 66 22 3c
       0.029548995 -0.06819603 0.06364721 0.009912078
000040 bd 15 13 be 24 6e 27 bc 3f be 36 be aa 13 3a be
       -0.14363761 -0.010219131 -0.1784601 -0.18171564
000050 cf 69 9e 3d 71 39 01 be 67 b9 65 bd 30 bb 8e bd
       0.07735025 -0.12619568 -0.056085017 -0.06969297
000060 03 38 37 bd 9f e4 43 be 13 25 fe bd b5 d4 ab 3d
       -0.04473115 -0.19130181 -0.12409415 0.0839018
000070 df c1 8b bd 07 c6 11 be 3d 02 79 3d 27 72 90 bc
       -0.06824087 -0.14235698 0.06079315 -0.017632557
000080 3c 50 6e bc 56 6f e0 bd c2 c3 48 3c b2 a1 a9 bd
       -0.014545497 -0.10958736 0.012253704 -0.08282794
000090 5d 7f 17 be f5 37 27 be f3 47 78 3d 05 57 e4 3c
       -0.14794679 -0.1632994 0.06061549 0.027873525
0000a0 d6 3e 8e bd 47 24 55 bc 72 da be bd 6b 23 d9 bd
       -0.06945579 -0.0130091375 -0.09319009 -0.106024586
0000b0 c5 30 1e be 6e 9e d1 bd 7a 46 8f bc 6d 24 56 bd
       -0.15448292 -0.10235296 -0.01748966 -0.052280832
0000c0 b9 04 20 3d 14 d8 05 3d 53 1c a0 bd fb 6a 0f be
       0.039067004 0.03267677 -0.078179024 -0.14005654
0000d0 90 06 42 3b 01 12 a5 3d 31 6b ad bd ed 1d 10 be
       0.0029605962 0.080600746 -0.08467711 -0.14073916
0000e0 70 76 10 be 7f 81 22 3d 9b 9f d2 bc 37 90 11 be
       -0.1410768 0.03967428 -0.025710871 -0.1421517
0000f0 2c 97 00 be 23 c5 92 bd f7 b6 9c bd d6 12 8c bc
       -0.12557667 -0.07166507 -0.07652085 -0.017098825
000100 0b 83 01 bd ba 18 b3 bd 3a b4 23 be 18 d1 f1 ba
       -0.031619113 -0.087449506 -0.1598672 -0.0018449156
000110 5f 2f 9f bd 62 d2 b0 bd ad 1d 3e 3d 7b 83 c2 bd
       -0.07772707 -0.08633877 0.04641502 -0.09497734
000120 ae e8 cd bc 9e 65 a9 bd 45 60 e8 bd 53 6e 38 be
       -0.025135364 -0.08271335 -0.11346487 -0.18010835
000130 2a dd c2 bb 47 7c 2f 3d 57 19 05 be a1 20 f0 3a
       -0.005946775 0.04284313 -0.12997948 0.0018320271
000140 36 66 d0 3c
       0.025439363
