src/controller/models/dqn_agent_local.pth (torch, 42741 bytes, 6 tensors)

layers.0.weight f4 [64, 6]
0	0x3e95347a	0.291416
1	0xbf0eb00f	-0.55737394
2	0xbd0c70ec	-0.03428738
3	0x3e961a87	0.29317114
4	0x3eeb71f0	0.45985365
5	0x3e724d11	0.23662211
6	0x3e08d7c8	0.13363564
7	0x3e7f4f57	0.2493261
8	0x3e6a74c9	0.22896113
9	0x3e4fa17d	0.20276447
10	0x3e0f4418	0.1399082
11	0x3edfb005	0.4368898
12	0xbe1b6dcc	-0.15178603
13	0x3dbebcce	0.093133554
14	0x3f05c41c	0.52252364
15	0x3d268dde	0.04066264
16	0x3e9cddf6	0.30638093
17	0xbdc0cfd5	-0.09414641
18	0x3eb47444	0.35244954
19	0x3e5e92bb	0.2173566
20	0xbebf919d	-0.37415782
21	0x3e9e1437	0.30874798
22	0xbe571647	-0.21004592
23	0xbcda6b92	-0.026662622
24	0x3edc70c4	0.43054783
25	0xbe675887	-0.22592364
26	0x3eef41e1	0.4672995
27	0xbdfed365	-0.12442664
28	0xbdde67e2	-0.10859658
29	0x3eded49e	0.4352159
30	0x3e0cb187	0.13739596
31	0xbd625925	-0.055260796
32	0x3e9ce42a	0.30642825
33	0x3f12ba69	0.5731569
34	0x3dd99bda	0.106254295
35	0xbe13f289	-0.14447989
36	0x3e9c31d1	0.30506757
37	0x3e978f4a	0.29601508
38	0xbda1360d	-0.078716375
39	0xbeb0a272	-0.34498936
40	0x3eb3dae8	0.3512795
41	0x3d8b2ad6	0.0679528
42	0x3e250dd0	0.1611855
43	0x3d918eaf	0.07107293
44	0xbe8be874	-0.27325785
45	0xbdad3a1a	-0.084583476
46	0xbe8eb709	-0.2787402
47	0xbdd6dd3c	-0.10491416
48	0x3e61f7ba	0.22067156
49	0x3e9e03f1	0.30862382
50	0xbe36bafb	-0.17844765
51	0x3e89cdca	0.26914817
52	0x3e04a85a	0.12954846
53	0xbea7521f	-0.3267984
54	0x3d187487	0.037220504
55	0xbde54b15	-0.111959614
56	0x3f021f27	0.50828785
57	0x3c855a1a	0.016278315
58	0x3da6ec6b	0.08150562
59	0xbd8b5c02	-0.068046585
60	0xbdb510ac	-0.088410705
61	0xbec45302	-0.3834458
62	0x3f01aaef	0.5065145
63	0x3de4f95e	0.111803755
64	0x3e8d935a	0.27651483
65	0xbe4685da	-0.19386998
66	0x3eed09ad	0.46296445
67	0xbe1f4014	-0.15551788
68	0x3e86dadb	0.26338848
69	0x3dedfc9a	0.116204455
70	0xbe2edc45	-0.17076214
71	0x3f158612	0.584077
72	0x3eb2b858	0.34906268
73	0x3d837ad3	0.06419911
74	0xbe3d076b	-0.18459861
75	0xbe816087	-0.25268957
76	0x3e3192bb	0.1734113
77	0xbea87ad5	-0.32906213
78	0xbe010bf5	-0.12602217
79	0xbe092034	-0.13391191
80	0xbece903e	-0.40344423
81	0x3df24630	0.118297935
82	0x3e69d516	0.22835192
83	0xbeb554b1	-0.35416177
84	0xbbf70408	-0.0075383224
85	0xbead9556	-0.33902997
86	0xbcf8e86b	-0.030384263
87	0x3d48f12d	0.04905813
88	0x3e40c708	0.18825924
89	0xbe5414eb	-0.20711105
90	0xbea4c298	-0.32179713
91	0xbe976426	-0.29568595
92	0xbe184869	-0.14871372
93	0xbec95d7d	-0.39329138
94	0x3ec880ad	0.39160672
95	0xbeaaa43f	-0.33328435
96	0xbe4fa9c8	-0.2027961
97	0x3d20c5a9	0.039251003
98	0x3efe824c	0.49708784
99	0x3e8dd4a9	0.2770131
100	0x3edc8b9d	0.43075266
101	0x3edb15e5	0.42790142
102	0xbe45b9fb	-0.19309227
103	0xbe2062e2	-0.15662721
104	0xbe9aa22e	-0.30201858
105	0x3de84d39	0.11342854
106	0xbe529ca7	-0.2056757
107	0xbe340dfa	-0.17583457
108	0x3db761f5	0.08954231
109	0xbe9bd3b0	-0.30434942
110	0x3eb5588b	0.35419115
111	0x3eb5d75b	0.35515866
112	0x3eb90b10	0.36141253
113	0x3e0eb21c	0.13935131
114	0xbe4b94c2	-0.19880965
115	0x3e36de84	0.1785832
116	0x3f03a52f	0.51423925
117	0xbda47ce9	-0.08031637
118	0x3eaae6ad	0.33379117
119	0x3ef68c17	0.48153755
120	0x3d8d87ff	0.06910705
121	0x3e2f6d1a	0.17131463
122	0x3eb1f098	0.3475387
123	0x3e9d9c36	0.30783242
124	0xbe3ec6ed	-0.18630572
125	0x3f0778e3	0.52918833
126	0x3ed9f70c	0.42571294
127	0xbe521e01	-0.20519258
128	0x3e0da791	0.13833453
129	0x3d2f415a	0.042786933
130	0xbd5f1018	-0.054458708
131	0xbe81ed69	-0.25376442
132	0xbeb4347e	-0.35196298
133	0x3e8f0efb	0.27941117
134	0xbec5b41d	-0.38613978
135	0x3d9b90ee	0.075960025
136	0x3ebb671a	0.36602098
137	0x3e69ddfc	0.22838587
138	0x3ec1d576	0.3785817
139	0x3eab0bad	0.33407345
140	0xbeb1ba17	-0.34712288
141	0xbe4ad4c2	-0.19807723
142	0xbeacc4fd	-0.3374404
143	0xbeae29e2	-0.3401633
144	0xbdddbb00	-0.10826683
145	0xbe8c8869	-0.27447823
146	0x3f0db4b9	0.55353886
147	0x3edd3ca3	0.43210325
148	0x3f07fdb9	0.53121525
149	0x3ea695e9	0.32536247
150	0xbe30d1dc	-0.17267555
151	0xbedb9e56	-0.42894238
152	0x3eebeab0	0.4607749
153	0x3e219b55	0.1578191
154	0xbd66dc5f	-0.056362506
155	0x3ee2cd27	0.44297144
156	0xbe280d0d	-0.16411228
157	0xbe62055d	-0.22072358
158	0xbea8fe73	-0.3300663
159	0x3e8ae592	0.27128273
160	0x3e2f4651	0.17116667
161	0xbeb192b2	-0.34682232
162	0xbe8951a1	-0.2682009
163	0x3e8121c1	0.25221065
164	0xbe6cbb67	-0.23118363
165	0xbd7b091f	-0.061287995
166	0x3e796f1d	0.24358793
167	0xbc88960f	-0.016673116
168	0x3eb4ce36	0.35313576
169	0x3d6c6652	0.057714768
170	0xbe0c1992	-0.1368163
171	0x3e739b60	0.2378974
172	0xbeafa677	-0.3430669
173	0xbdc8c008	-0.09802252
174	0x3dd1f75a	0.10252257
175	0xbd361f07	-0.044463184
176	0xbc152a52	-0.009104328
177	0xbeb539bd	-0.35395613
178	0xbeb9c546	-0.3628332
179	0xbddfe6a0	-0.1093266
180	0x3ef9b0ab	0.487676
181	0xbe497ee7	-0.19677316
182	0x3eec0241	0.4609547
183	0xbe2b0c33	-0.16703872
184	0x3eaed6a2	0.34148127
185	0x3ec996cc	0.3937286
186	0x3ebff6dd	0.3749303
187	0xbe737ee5	-0.23778875
188	0x3ee5f332	0.44912106
189	0x3e9e4465	0.30911556
190	0x3cd9c89a	0.026584912
191	0xbe413963	-0.18869548
192	0x3f0248b3	0.5089218
193	0xbd1ead4e	-0.038739495
194	0x3e73bf14	0.2380336
195	0x3eb8d3fd	0.36099234
196	0x3e765c64	0.24058682
197	0xbe4b9218	-0.19879949
198	0xbe0b85c2	-0.13625243
199	0xbef6e5a4	-0.48222077
200	0x3edd9b68	0.43282628
201	0x3e56ba92	0.20969608
202	0x3ed7d2f1	0.42153123
203	0x3e4773f8	0.19477832
204	0x3e2a7ae8	0.16648448
205	0xbe17d5be	-0.1482763
206	0x3e5a1fec	0.2130124
207	0x3d5f8fb3	0.0545804
208	0xbd9f57c8	-0.07780415
209	0x3ee123c2	0.43972594
210	0xbe99ce3b	-0.30040154
211	0x3e176f63	0.14788584
212	0xbdefa733	-0.117018126
213	0x3d250279	0.04028556
214	0x3d618e97	0.055067625
215	0x3dff58e6	0.12468128
216	0xbec55225	-0.38539234
217	0x3e38bce0	0.180408
218	0xbd9578a8	-0.07298404
219	0x3ea1972a	0.31560642
220	0xbea7efc5	-0.32800117
221	0xbdc505ba	-0.09620233
222	0x3e4e8e00	0.20171356
223	0x3d96589b	0.07341119
224	0x3c0d4048	0.008621283
225	0x3e97be08	0.2963717
226	0x3e2e8a67	0.17044984
227	0x3e4f5e09	0.20250715
228	0x3ea985d0	0.33109903
229	0xbee38543	-0.44437608
230	0xbd00ae88	-0.031416446
231	0x3f064037	0.52441734
232	0x3ec50913	0.38483486
233	0x3f04e303	0.5190889
234	0x3e90e86e	0.2830233
235	0xbd14a122	-0.03628648
236	0xbc658034	-0.014007617
237	0x3d574b79	0.05256221
238	0x3e718046	0.23584089
239	0x3eab6057	0.3347194
240	0x3eede34d	0.4646248
241	0xbec81024	-0.39074814
242	0x3e6d8b0d	0.23197575
243	0x3ed567c5	0.41680732
244	0x3ead6c7c	0.3387183
245	0x3dae16d4	0.08500448
246	0xbdb019cd	-0.08598671
247	0xbcef7238	-0.029229268
248	0x3ebd2ae9	0.369468
249	0x3ea902a2	0.3300982
250	0x3e547ef9	0.20751561
251	0xbe1d53b4	-0.15363961
252	0xbeb9eb48	-0.36312318
253	0xbeae932e	-0.34096664
254	0x3e75942f	0.23982309
255	0xbeb1288c	-0.34601247

layers.0.bias f4 [64]
0	0x3eef73d1	0.46768048
1	0xbbbf8c15	-0.0058455565
2	0xbd40fd99	-0.04711685
3	0x3ddce728	0.10786277
4	0x3e163375	0.14668067
5	0x3e9bc493	0.30423412
6	0xbea9753e	-0.3309726
7	0x3c83a82a	0.016071398
8	0xbcf43b20	-0.02981335
9	0x3eb2b091	0.34900334
10	0x3e84034c	0.25783765
11	0x3d73ccdb	0.059521537
12	0xbe79faa2	-0.24412015
13	0x3e74e447	0.23915206
14	0x3d069e96	0.032866083
15	0xbe174451	-0.14772154
16	0x3e7b5cfd	0.24547191
17	0xbe74ef68	-0.23919451
18	0x3f092af2	0.53581154
19	0x3d59993b	0.053124648
20	0x3edaada7	0.4271061
21	0x3edd3792	0.4320646
22	0xbeb9d99f	-0.36298844
23	0x3e6d13b7	0.23152052
24	0x3e89ea0b	0.26936373
25	0x3e39d4cf	0.18147586
26	0x3e9f5364	0.3111831
27	0xbe95cf0e	-0.29259533
28	0xbe4ce8a4	-0.2001062
29	0xbea450a6	-0.3209278
30	0x3e9313ce	0.28726047
31	0x3e99d860	0.30047894
32	0x3ef5827b	0.4795111
33	0x3e9af3f8	0.30264258
34	0x3dc338c7	0.09532314
35	0xbe7eab29	-0.2486998
36	0x3c0f4bf8	0.00874614
37	0x3e1dfc24	0.15428215
38	0x3efd03ee	0.4941706
39	0x3ed3389b	0.41254124
40	0x3e6bc230	0.23023295
41	0x3e5afc99	0.21385421
42	0xbe3b75a2	-0.18306592
43	0x3d05621b	0.032564264
44	0xbea7ba8b	-0.32759508
45	0x3e88220a	0.2658847
46	0xbd0abdb7	-0.033872332
47	0xbe27f32c	-0.16401356
48	0xbec0e728	-0.37676358
49	0xbe9aafcc	-0.30212247
50	0xbe4999d2	-0.19687584
51	0xbebcb03c	-0.36853206
52	0xbed03c2d	-0.4067091
53	0x3e92b6b0	0.28655005
54	0x3d0cd972	0.03438706
55	0xbda3c931	-0.079973586
56	0x3ded81e0	0.11597037
57	0x3f0d7568	0.5525727
58	0x3f027e88	0.5097432
59	0x3f023271	0.5085822
60	0x3e3efc22	0.18650869
61	0xbc8b04a9	-0.016969996
62	0x3eeb23f6	0.45925874
63	0xbebe3288	-0.37147927

layers.2.weight f4 [64, 64]
0	0xbda42f7c	-0.080168694
1	0xbd4dacc8	-0.050213605
2	0x3d967a9a	0.07347603
3	0xbc9c60b8	-0.019089088
4	0x3d90c0b8	0.07068008
5	0x3b398600	0.002830863
6	0xbdbe145a	-0.092812255
7	0xbcb13280	-0.021630526
8	0xbc5c41c0	-0.01344341
9	0x3c84c560	0.016207397
10	0x3d34a54c	0.044102952
11	0xbd95a63a	-0.07307096
12	0x3df70f4a	0.12063463
13	0xbd881d16	-0.06646173
14	0x3d91a54a	0.071116045
15	0x3d7c3ea4	0.061583176
16	0xbd2c9c84	-0.042141452
17	0xbd1b1498	-0.037861437
18	0xbdd9579e	-0.10612415
19	0xbdabe23e	-0.08392762
20	0xbd7fb8f8	-0.06243226
21	0x3ca4f7e0	0.020137727
22	0xbb550680	-0.0032505095
23	0x3d5daf3c	0.054122195
24	0x3d048620	0.032354474
25	0x3d19a778	0.037513226
26	0xbd701c08	-0.058620483
27	0xbdad285a	-0.08454962
28	0xbd372a20	-0.044717908
29	0x3d3bdfb0	0.045867622
30	0xbddeed6e	-0.1088513
31	0x3cce8610	0.02521041
32	0xbdf7187a	-0.120652154
33	0xbdee0a6a	-0.1162308
34	0x3ccae2f8	0.02476643
35	0x3cec0eb0	0.028815597
36	0x3b508ac0	0.0031820983
37	0x3d80b7e6	0.06285076
38	0xbdc7a7f0	-0.097488284
39	0xbdfd5290	-0.12369263
40	0xbca8a198	-0.020584866
41	0x3d9604b0	0.07325113
42	0x3d086860	0.033302665
43	0x3c99cac0	0.018773437
44	0x3d4f76bc	0.050650343
45	0x3d99464e	0.07484113
46	0x3df7aad8	0.12093133
47	0x3de9ef90	0.11422646
48	0xbde38ab4	-0.1111044
49	0x3d09c5e4	0.03363599
50	0x3da6f1fe	0.08151625
51	0x3dd96f7a	0.106169656
52	0xbd746c18	-0.0596734
53	0xbdd4db90	-0.10393441
54	0x3d5a68a4	0.05332245
55	0x3d98fe46	0.07470374
56	0xbdba8012	-0.09106459
57	0x3b4e2380	0.0031454265
58	0x3d8cdbd2	0.06877865
59	0xbdafe29c	-0.08588144
60	0xbbb3f000	-0.0054912567
61	0xbd5906a8	-0.052984864
62	0x3def787e	0.11692904
63	0xbd5575dc	-0.052114353
64	0x3dc8ba36	0.09801142
65	0x3d06a658	0.03287348
66	0x3c2fcd70	0.010730132
67	0x3d9e54e6	0.07731037
68	0x3dfc6456	0.12323825
69	0x3d8ae34c	0.06781635
70	0x3dcfe606	0.10151295
71	0x3d67d144	0.056596056
72	0x3ce3d370	0.027810782
73	0x3d08e4c8	0.033421308
74	0xbd80bd8c	-0.06286153
75	0xbddf98e6	-0.10917835
76	0x3cae1838	0.021251783
77	0xbd95b80c	-0.07310495
78	0x3c1ae420	0.009453803
79	0xbd4e3134	-0.050339893
80	0x3cc33130	0.023827165
81	0xbd9d201e	-0.076721415
82	0x3ce21440	0.027597547
83	0xbd59ae0c	-0.0531445
84	0xbda55d42	-0.08074428
85	0x3d8282e0	0.06372619
86	0x3dfa980a	0.122360304
87	0xbdc5a1a4	-0.09649971
88	0x3d2e5fb8	0.042571753
89	0xbd390bc0	-0.04517722
90	0x3dd6a070	0.1047982
91	0x3df59986	0.11992173
92	0x3dbfd9e4	0.09367731
93	0x3dbe546a	0.092934445
94	0x3def0588	0.11670977
95	0x3ce36e20	0.027762473
96	0x3c8746b8	0.016513214
97	0x3daf0f02	0.085477844
98	0xbdb5d786	-0.088789985
99	0xbdf0bac6	-0.11754374
100	0x3d9c12ae	0.0762075
101	0xbd028b30	-0.03187102
102	0xbde6f900	-0.11277962
103	0x3d703604	0.058645263
104	0xbc0a5a10	-0.008444324
105	0x3d930a8a	0.071797445
106	0x3dc549a6	0.09633188
107	0xba9b9b00	-0.0011871755
108	0x3ca9d760	0.020732582
109	0x3d058bac	0.032603905
110	0xbd8e6ff2	-0.069549456
111	0xbd066214	-0.03280838
112	0x3dd9a992	0.10628046
113	0x3c4c5c20	0.012473136
114	0xbd187ac4	-0.037226453
115	0x3deca29a	0.11554451
116	0xbc222ab0	-0.009897873
117	0x3c874e08	0.0165167
118	0x3c886b70	0.016652793
119	0xbae96280	-0.0017805845
120	0x3d86e71a	0.06587048
121	0xbae41f80	-0.0017404407
122	0xbde4b7d4	-0.11167875
123	0xbd617ac8	-0.055048734
124	0xbc993838	-0.018703565
125	0xbd906b3c	-0.07051703
126	0xbdf9a17e	-0.12189005
127	0xbdab053a	-0.08350606
128	0xbd9e5bb0	-0.07732332
129	0xbd130dc8	-0.035901815
130	0x3c2be5a0	0.010491759
131	0x3d128fec	0.035781786
132	0x3d921b16	0.071340725
133	0x3dafcf48	0.08584458
134	0x3d64de14	0.055875853
135	0x3da4e9a0	0.08052373
136	0xbdabbaf8	-0.08385271
137	0xbc272010	-0.010200515
138	0x3dd5ef24	0.10446003
139	0xbd6fd320	-0.058550954
140	0xbdea16ee	-0.11430155
141	0xbdae570a	-0.08512695
142	0x3d9b181e	0.07572959
143	0xbd436128	-0.047700077
144	0xbd4038d0	-0.04692918
145	0x3df49456	0.11942355
146	0xbc6211c0	-0.013798177
147	0xbd8d9d96	-0.06914823
148	0x3dcc2c7e	0.09969424
149	0x3dd97b96	0.10619275
150	0x3cd44b38	0.025914773
151	0x3dafd392	0.08585276
152	0xbd4efec0	-0.050535917
153	0x3dc7aeba	0.09750123
154	0x3b5e5e00	0.003393054
155	0x3de7db3e	0.11321114
156	0x3cb3caf8	0.021947369
157	0x3d124bfc	0.035716996
158	0x3dcb09dc	0.0991399
159	0xbdc3b572	-0.09556092
160	0xbdf9847e	-0.12183474
161	0xbc8415b0	-0.016123623
162	0x3ddc5f60	0.10760379
163	0x3ce3f050	0.02782455
164	0x3d83cd9a	0.064357
165	0xbb720a40	-0.003693238
166	0xbda03c68	-0.078240216
167	0x3d7dbd08	0.061947852
168	0xbd39b2a0	-0.045336366
169	0xbd8d5d14	-0.06902519
170	0xbdbaf694	-0.09129062
171	0x3ca990b8	0.02069889
172	0xbd92a6dc	-0.07160732
173	0xbc23fad0	-0.010008529
174	0xbdd1f1b6	-0.10251181
175	0xbd463268	-0.048387915
176	0x3d2821a4	0.041047707
177	0xbd2161e0	-0.03939998
178	0xbd4d6b48	-0.05015114
179	0xbd8f8e9e	-0.07009624
180	0x3cc90848	0.024540082
181	0xbd4f7ea4	-0.050657883
182	0xbdf30828	-0.1186679
183	0xbda1994c	-0.07890567
184	0x3dccb268	0.09994966
185	0xbc8db810	-0.017299682
186	0xbdabf2b8	-0.08395904
187	0xbcb7cef8	-0.022437558
188	0x3d7ba664	0.06143798
189	0xbd229110	-0.039689124
190	0xbda0b02c	-0.07846102
191	0xbd84f552	-0.06492104
192	0xbddd669c	-0.10810587
193	0xbdb1407e	-0.08654879
194	0x3d41edf8	0.047346085
195	0xbcae0268	-0.021241382
196	0xbc828668	-0.01593323
197	0x3c0af2a0	0.008480698
198	0xbdd49fd8	-0.1038205
199	0x3dd69e68	0.10479432
200	0xbdb1b624	-0.08677319
201	0x3ded68f4	0.11592284
202	0x3ca71480	0.020395517
203	0x3b10f440	0.002211824
204	0x3d7da878	0.061928242
205	0xbd6efdcc	-0.05834751
206	0x3ddcbc1c	0.107780665
207	0x3dc23bd6	0.09484069
208	0x3c0a9d70	0.008460388
209	0x3ddf4d84	0.10903457
210	0x3c357f00	0.011077642
211	0x3de31892	0.11088671
212	0xbde1701a	-0.1100771
213	0xbdba4654	-0.09095445
214	0xbdaa48f6	-0.083146974
215	0x3d5b2c98	0.053509325
216	0xbc8b5c28	-0.017011717
217	0xbdcdaefa	-0.1004314
218	0xbdad269c	-0.0845463
219	0xbde82c3e	-0.113365635
220	0x3cff4348	0.031160012
221	0xbd9e9674	-0.077435404
222	0x3c14e020	0.009086639
223	0xbc803290	-0.01564911
224	0xbda105a2	-0.078624025
225	0xbd8f75ee	-0.07004915
226	0x3dc446f0	0.09583843
227	0xbdcb98aa	-0.09941228
228	0xbdf55a52	-0.11980118
229	0x3d7784a8	0.060429245
230	0xbd2102d8	-0.039309353
231	0xbc7f1410	-0.015568748
232	0x3d528d64	0.05140437
233	0xbd5a8a18	-0.053354353
234	0x3bdd52c0	0.0067542493
235	0x3df8c3ca	0.12146719
236	0x3d914a8e	0.07094298
237	0x3d8c030a	0.06836517
238	0xbc415790	-0.011800662
239	0xbd8bd2a0	-0.06827283
240	0xbc0697c0	-0.008214891
241	0x3d8065bc	0.06269404
242	0x3d444448	0.04791668
243	0xbcfc5e80	-0.03080678
244	0xbc9ac158	-0.018891022
245	0xbb698000	-0.0035629272
246	0xbd40fb50	-0.04711467
247	0x3dbd8848	0.09254509
248	0x3cf5e4d8	0.030016348
249	0x3d4cf8bc	0.0500419
250	0xbd3c48d8	-0.045967907
251	0xbdbcf708	-0.09226805
252	0xbdc3df08	-0.09564024
253	0x3d87b162	0.0662563
254	0xbdf0de94	-0.117612034
255	0x3cd99e78	0.026564822

layers.2.bias f4 [64]
0	0xbc169870	-0.009191617
1	0xbd876f3c	-0.06613013
2	0xbc9ef6e8	-0.019404843
3	0x3d6d00e8	0.057862192
4	0x3e4302e8	0.19044077
5	0x3d712225	0.058870453
6	0x3dc974e2	0.09836747
7	0x3e028bb2	0.12748602
8	0xbc44e0e0	-0.012016505
9	0x3e420033	0.18945388
10	0x3d5d1a7c	0.053980336
11	0xbc34b130	-0.011028573
12	0x3e017c3d	0.1264505
13	0x3cba0cba	0.022711147
14	0xbd8cbe12	-0.068721905
15	0x3d4498e8	0.047997385
16	0xbd0be9ed	-0.034158636
17	0x3e55d3dd	0.208816
18	0xbce5e19e	-0.028061684
19	0xbde94196	-0.11389463
20	0x3db32826	0.08747892
21	0x3cde0938	0.027104005
22	0x3ac19fc6	0.0014772348
23	0xbd5bb164	-0.05363597
24	0x3c007a5b	0.007841672
25	0x3e48af95	0.19598229
26	0x3d64824b	0.05578832
27	0x3e761434	0.24031144
28	0xbd988f11	-0.07449163
29	0x3e48670e	0.19570562
30	0x3e282b5b	0.16422789
31	0x3d3268a8	0.04355684
32	0x3e535160	0.20636511
33	0x3d9974c8	0.074929774
34	0x3df2b67f	0.118512146
35	0x3e26d0fa	0.16290656
36	0x3d7854cf	0.060627755
37	0xbd1104f8	-0.03540513
38	0x3abd493e	0.0014441384
39	0xbd511db5	-0.05105372
40	0x3e67df5d	0.226438
41	0x3da9734f	0.082739465
42	0x3cf3cd90	0.029761106
43	0xbdca9aca	-0.09892805
44	0x3d9f5498	0.07779807
45	0x3e2fb029	0.17157044
46	0x3d74558c	0.059651896
47	0xbdc83d9a	-0.097773746
48	0x3e55bc41	0.20872594
49	0x3dc864f2	0.09784879
50	0xbdb71527	-0.08939581
51	0x3a8ac3b4	0.0010586889
52	0x3e408bde	0.18803355
53	0xbdcc1c17	-0.09966295
54	0x3e827003	0.25476083
55	0x3e461126	0.19342479
56	0x3e422d12	0.18962505
57	0xbce41ea8	-0.02784665
58	0x3bd3b167	0.006460357
59	0xbd5a5d24	-0.053311482
60	0x3d873f1f	0.06603836
61	0x3da17c82	0.07885076
62	0x3db8c58d	0.09022055
63	0xbdbea0a0	-0.093079805

layers.4.weight f4 [81, 64]
0	0xbd94532a	-0.07242425
1	0x3db0a9d4	0.08626142
2	0xbdd47bea	-0.10375197
3	0xbdc51bba	-0.09624429
4	0xbe27bc63	-0.16380458
5	0x3cc1cf78	0.0236585
6	0xbd3a3818	-0.04546365
7	0x3d481d06	0.048855804
8	0x3cae9618	0.021311805
9	0xbcee8f2a	-0.029121
10	0x3da7ae7c	0.08187577
11	0x3df687e2	0.12037636
12	0xbde03aec	-0.109487385
13	0x3d9ab4fd	0.07554052
14	0x3de80012	0.113281384
15	0xbdeb15d8	-0.11478776
16	0xbca4c658	-0.020114109
17	0xbceaf3ab	-0.028680643
18	0xbdbef57c	-0.09324166
19	0xbce9ebb8	-0.028554782
20	0x3c6d7ee1	0.014495582
21	0x3a3ff100	0.00073219836
22	0x3d4d202c	0.05007951
23	0x3bd06140	0.0063592494
24	0xbd649448	-0.055805475
25	0xbd92d3e9	-0.07169325
26	0xbe0a881f	-0.13528489
27	0xbbfeb5db	-0.0077731437
28	0xbcf80f28	-0.030280665
29	0xbd27aab6	-0.040934287
30	0xbd8f7315	-0.07004372
31	0xbd38b85f	-0.045097705
32	0xbe1683e3	-0.14698748
33	0xbdd85bb6	-0.105643675
34	0x3d3e44a3	0.046452176
35	0xbd87d64f	-0.06632673
36	0x39bd2b10	0.00036080973
37	0xbbe706a0	-0.0070503503
38	0xbddd7d6d	-0.10814939
39	0xbdc2a14a	-0.0950342
40	0xbd7e1cbb	-0.06203912
41	0xbd1b11f4	-0.03785892
42	0x3c92cb58	0.017919227
43	0x3da06444	0.07831624
44	0x3c720330	0.014771268
45	0xbc00b6eb	-0.007856111
46	0xbd3ae2b4	-0.045626357
47	0xbd3ba354	-0.04581006
48	0xbc22a799	-0.009927654
49	0xbdfdee20	-0.12398934
50	0x3dd08126	0.10180883
51	0x3caeb5a8	0.021326855
52	0x3d86687d	0.06562898
53	0xbbde3a43	-0.0067818477
54	0xbd158dc0	-0.036512136
55	0xbd49d0f1	-0.049271528
56	0xbe4319da	-0.1905283
57	0x3d6bec64	0.057598487
58	0xbc715020	-0.014728576
59	0x3bf447c0	0.0074548423
60	0xbe22c921	-0.15897037
61	0xbd963e32	-0.073360816
62	0x3b8f3b5e	0.004371091
63	0x3d975b5a	0.07390471
64	0xbcd579d0	-0.026059061
65	0xbd1a6750	-0.037696183
66	0xbd281218	-0.04103288
67	0x3ce57cb8	0.028013572
68	0xbcc7b9eb	-0.024380645
69	0xb9acf03f	-0.00032985394
70	0x3c8fe776	0.017566424
71	0xbd723b08	-0.059138328
72	0xbdd05da6	-0.10174112
73	0x3c58c190	0.013229743
74	0x3d8a2c2c	0.06746706
75	0x3da72d50	0.081629395
76	0xbe0f4855	-0.13992436
77	0xbd02e2c9	-0.03195456
78	0x3dac757e	0.08420847
79	0xbdb009fe	-0.08595656
80	0xbdf9ecc6	-0.12203364
81	0xbda6258b	-0.081126295
82	0xbc8e6758	-0.017383263
83	0x3dbf2206	0.09332661
84	0xbd7836d4	-0.060599163
85	0xbd5f6274	-0.05453725
86	0x3ce954b8	0.02848278
87	0xbd3dfa10	-0.046381056
88	0x3d5485e7	0.05188551
89	0xbe0c1e2e	-0.13683388
90	0x3d213d13	0.039364886
91	0xbb2db428	-0.0026505087
92	0x3df84660	0.12122798
93	0xbde778e2	-0.113023534
94	0x3b1dff89	0.002410861
95	0x3d6bef69	0.057601366
96	0xba8c4152	-0.0010700619
97	0x3d5957a8	0.05306211
98	0xbe0463eb	-0.1292874
99	0xbd7ccec2	-0.061720617
100	0x3dbc0140	0.09179926
101	0xbda40b10	-0.080099225
102	0xbd2469e5	-0.04014005
103	0xbdc11282	-0.09427358
104	0x3c92d760	0.017924964
105	0xbd28e461	-0.041233424
106	0x3c5f68d0	0.013635829
107	0xbda32276	-0.07965557
108	0x3cceda00	0.025250435
109	0xbe0e07f3	-0.1387022
110	0xbd3410bc	-0.04396127
111	0xbd5bb7c4	-0.05364205
112	0xbda04a97	-0.07826727
113	0x3dcecfea	0.1009825
114	0xbdb868a0	-0.09004331
115	0xbcd87238	-0.026421651
116	0x3c322c74	0.010874856
117	0xbda1c6c0	-0.07899237
118	0xbe261511	-0.16218974
119	0xbcfd72b4	-0.030938484
120	0xbdc9c103	-0.09851267
121	0x3aa25400	0.0012384653
122	0x3c0cd2c0	0.008595169
123	0x3de465c4	0.11152223
124	0xbd4d2b01	-0.05008984
125	0x3d9e2f2a	0.077238396
126	0xbc856b4c	-0.016286515
127	0x3d39af10	0.04533297
128	0xbcd86c10	-0.026418716
129	0x3c8b6df0	0.017020196
130	0xbc343a90	-0.0110002905
131	0xbdcd9f3e	-0.10040139
132	0xbc971099	-0.018440532
133	0xbc4fd3ec	-0.012684803
134	0x3decc31c	0.11560652
135	0xbddc981b	-0.10771199
136	0x3dd06aaa	0.101765946
137	0xbd9dccec	-0.07705101
138	0xbdc56e6a	-0.096402004
139	0x3c6f3d20	0.014601976
140	0xbe4ab1b9	-0.19794358
141	0xbd3b87b8	-0.04578373
142	0xbd382a8c	-0.04496245
143	0x3c08b160	0.008343071
144	0xbc0bba60	-0.008528322
145	0xbe7e8738	-0.2485627
146	0xbd00bf18	-0.03143224
147	0xbdee196e	-0.11625944
148	0xbe683f03	-0.22680287
149	0x3dc05292	0.09390749
150	0x3cdb7e70	0.026793689
151	0x3dd02d90	0.1016494
152	0xbd7cf509	-0.06175712
153	0xbe48ae49	-0.19597735
154	0x3d984481	0.07434941
155	0xbcb8e890	-0.022571832
156	0xbd254b18	-0.040354818
157	0xbe2b6f7b	-0.16741745
158	0xbdaa90c5	-0.08328394
159	0xbe6d855f	-0.23195408
160	0xbe6635de	-0.22481486
161	0xbd3e7324	-0.046496525
162	0xbdcd9db4	-0.10039845
163	0xbe3cc535	-0.18434604
164	0x3ceffaf0	0.029294461
165	0xbde69e68	-0.11260682
166	0xbe312835	-0.17300494
167	0x3d487afd	0.048945416
168	0xbbe46424	-0.0069699455
169	0x3d4511f4	0.048112825
170	0xbdb8d7f4	-0.09025565
171	0x3b907c00	0.004409313
172	0x3de4a8e8	0.11165029
173	0xbe1f11d7	-0.15534149
174	0xbd2f8848	-0.042854577
175	0x3da81008	0.08206183
176	0xbdf3e464	-0.119087964
177	0x3dc0d240	0.09415102
178	0xbd515bd4	-0.051112965
179	0xbd714648	-0.058904916
180	0xbd398560	-0.045293212
181	0x3dcdc0ac	0.10046515
182	0xbdbb65fa	-0.0915031
183	0xbc3727d1	-0.011178927
184	0xbe69c008	-0.2282716
185	0x3c9a9450	0.018869549
186	0x3df2aeb6	0.1184973
187	0x3badb540	0.0053011477
188	0x3baebcca	0.005332564
189	0x3de8d0e6	0.11367969
190	0xbdd93de0	-0.10607505
191	0xbccfa4e0	-0.025347173
192	0x3d914c96	0.07094686
193	0xbdbf2904	-0.09333995
194	0xbde507e2	-0.11183144
195	0x3d8abb16	0.06773965
196	0x3c101238	0.008793406
197	0xbdddc5b6	-0.10828726
198	0xbdfa6ad5	-0.12227408
199	0xbd8f0206	-0.06982808
200	0xbc55d940	-0.013052285
201	0x3d919ffe	0.07110594
202	0x3d3f5d2c	0.046719715
203	0xbdbc5aa8	-0.09196979
204	0xbdc3898c	-0.09547719
205	0xbde2960b	-0.11063775
206	0xbda8066a	-0.082043484
207	0xbda8d100	-0.082429886
208	0x3d31f398	0.0434452
209	0xbe13ef88	-0.14446843
210	0xbcdfa1c0	-0.027298808
211	0xbdb6f2de	-0.08933042
212	0x3d0ee1c5	0.03488328
213	0xbd99fa3e	-0.07518433
214	0x3da02864	0.07820204
215	0xbd9e04a6	-0.0771573
216	0xbdf6b4b1	-0.12046183
217	0xbc702d82	-0.014659287
218	0xbda725db	-0.08161517
219	0xbd9d4745	-0.07679609
220	0xbdab4a27	-0.08363753
221	0xbe043841	-0.12912084
222	0xbdf32ad7	-0.118734054
223	0xbe0e3b8c	-0.13889903
224	0x3d05f8e7	0.032708075
225	0x3d98773e	0.07444619
226	0xbe039d60	-0.12853003
227	0xbd582a68	-0.052774817
228	0x3df5418a	0.11975391
229	0x3da0003c	0.07812545
230	0x3a0a3028	0.0005271458
231	0xbce946a8	-0.028476074
232	0x3d283978	0.04107043
233	0xbd94d5ef	-0.07267367
234	0xbdcf12be	-0.10110997
235	0x3dcfa640	0.101391315
236	0x3cc1ad98	0.023642346
237	0xbda4a4b5	-0.08039228
238	0xbd42b808	-0.047538787
239	0x3d98aa2e	0.07454334
240	0x3bd24658	0.006417077
241	0x3d89c85e	0.0672767
242	0x3d74a1a0	0.05972445
243	0xbdf54cb6	-0.11977522
244	0xbcdc436d	-0.02688762
245	0x3d8bae6b	0.06820377
246	0xbe196df4	-0.1498335
247	0x3d92dcb2	0.071710005
248	0x3d26d35b	0.040728908
249	0x3de79f36	0.11309664
250	0x3d476858	0.048683494
251	0xbdf8e34e	-0.1215273
252	0xbd38f61a	-0.045156576
253	0xbd8affa8	-0.06787044
254	0x3d167027	0.03672805
255	0xbd77ff3c	-0.060546145

layers.4.bias f4 [81]
0	0xbd820a58	-0.06349629
1	0xbc6d1acd	-0.014471722
2	0xbd44fce7	-0.04809275
3	0xbe039559	-0.1284994
4	0x3d65c2e5	0.05609407
5	0x3cf67827	0.03008659
6	0xbe21e37f	-0.15809439
7	0xbe26ae6c	-0.16277474
8	0xbd9798e9	-0.07402212
9	0xbdab608d	-0.08368025
10	0xbdff05d1	-0.12452281
11	0xbdf9b004	-0.121917754
12	0xbdded1a7	-0.10879832
13	0xbe1db796	-0.15402064
14	0xbd6d27f7	-0.05789944
15	0xbe273856	-0.16330084
16	0x3c48a58b	0.0122465
17	0xbde18e9e	-0.1101353
18	0xbde90c2f	-0.11379277
19	0xbe014c68	-0.12626803
20	0xbd393667	-0.045217898
21	0xbd40ac88	-0.04703954
22	0xbd8b461e	-0.06800483
23	0xbe3030bb	-0.17206089
24	0x3da68fb7	0.0813288
25	0xbd971718	-0.07377452
26	0xbcfc90b0	-0.030830711
27	0x3d027a64	0.031855002
28	0xbe0946ca	-0.1340591
29	0x3c0df721	0.008664877
30	0xbd99a351	-0.07501853
31	0xbdfa0583	-0.122080825
32	0xbd3af46e	-0.045643263
33	0xbd5fb664	-0.0546173
34	0xbd9417dd	-0.07231114
35	0x3ca1dd2d	0.019758785
36	0xbdf0b0cc	-0.11752471
37	0x3d8fde43	0.07024815
38	0xbce80316	-0.028321784
39	0xbe1be23b	-0.15223019
40	0xbe1336a9	-0.1437632
41	0xbe1173c2	-0.14204314
42	0xbe143827	-0.14474545
43	0x3d60a60f	0.054845866
44	0x3d904863	0.07045057
45	0xbd00ca95	-0.031443197
46	0x3d027668	0.031851202
47	0xbe1e3fcc	-0.15454024
48	0xbe1a3721	-0.15060093
49	0xbabd956b	-0.0014464086
50	0xbc8b7a8e	-0.017026212
51	0x3da84b3e	0.08217476
52	0x3c99df52	0.018783245
53	0xbd1b16a9	-0.037863407
54	0x3d83fb8e	0.064444646
55	0xbd9a9bf9	-0.07549281
56	0xbdd90461	-0.10596538
57	0xbe32e07f	-0.17468451
58	0x3bd98612	0.006638297
59	0x3d86fe93	0.06591525
60	0x3d1b46c8	0.0379093
61	0xbc074231	-0.008255527
62	0xbdf924e4	-0.121652395
63	0xbdfc0126	-0.123049065
64	0x3d9bcd9d	0.07607577
65	0xbd263072	-0.040573545
66	0xbe0e2258	-0.13880289
67	0xbc882f57	-0.016624136
68	0xbd0f378b	-0.03496508
69	0xbc0dc6f3	-0.00865339
70	0xbd8a4b41	-0.06752635
71	0xbd812f04	-0.06307796
72	0xbdb90e68	-0.09035951
73	0xbdf11f8c	-0.11773595
74	0xbde22bdb	-0.11043521
75	0x3ceeee36	0.029166322
76	0xbe2f9111	-0.17145182
77	0xbd86795c	-0.06566116
78	0xbae16aed	-0.0017198004
79	0xbdb07e66	-0.086178586
80	0xbd29b69a	-0.041433908
