src/controller/models/dqn_agent_target.pth (torch, 42753 bytes, 6 tensors)

layers.0.weight f4 [64, 6]
0	0xbe7b1b5e	-0.24522159
1	0xbe994fba	-0.2994364
2	0x3d93045b	0.07178565
3	0x3d822ca8	0.06356174
4	0xbdbf6b4f	-0.09346639
5	0x3e0b795c	0.13620514
6	0xbd24cfeb	-0.04023735
7	0xbdd28f6b	-0.10281261
8	0x3e239b2e	0.15977165
9	0x3d15ee88	0.036604434
10	0xbe23b585	-0.15987213
11	0xbd39b44d	-0.045337964
12	0x3e43efd2	0.19134453
13	0x3dadcc8c	0.0848628
14	0x3ead3ddd	0.3383626
15	0xbe9a4726	-0.30132407
16	0x3df740d9	0.120729156
17	0xbe1b0682	-0.15139201
18	0xbd8d993b	-0.06913992
19	0x3e9e90da	0.30969888
20	0xbeb5e3be	-0.35525316
21	0x3e542841	0.2071848
22	0x3e4caa18	0.1998676
23	0xbe862a98	-0.2620437
24	0xbbe02cc0	-0.006841272
25	0xbe2dda6d	-0.16977854
26	0xbd4772dc	-0.048693523
27	0x3e7824f8	0.24232852
28	0x3e6910ca	0.22760311
29	0xbe15ac9c	-0.14616627
30	0xbce875c9	-0.028376477
31	0xbe0d2aa1	-0.13785793
32	0x3e886bb2	0.26644665
33	0x3db8b9ad	0.0901979
34	0xbd849a4b	-0.064747415
35	0x3e4d3bd8	0.2004236
36	0x3e9b4b1c	0.3033074
37	0xbd6b7d21	-0.05749238
38	0x3e80cc34	0.25155795
39	0xbc94e42d	-0.018175209
40	0x3e771418	0.24128759
41	0x3d9f5f4b	0.077818476
42	0xbe4f266c	-0.202295
43	0x3d2650a7	0.04060426
44	0x3e2dfca4	0.16990906
45	0xbe3fa2a2	-0.18714383
46	0xbe273959	-0.1633047
47	0x3e323a93	0.17405157
48	0x3e10e537	0.14149939
49	0x3dc36918	0.095415294
50	0xbcae5c22	-0.021284167
51	0x3e338547	0.1753131
52	0xbcf3c931	-0.029759021
53	0xbdad8936	-0.084734365
54	0x3e980239	0.29689196
55	0x3db1c8f8	0.0868091
56	0x3d4caf47	0.049971845
57	0x3ce4363c	0.027857892
58	0x3d410a48	0.047128946
59	0xbe3899e8	-0.1802746
60	0xbe6767c7	-0.22598182
61	0x3dd27bd0	0.102775216
62	0x3dea2e34	0.11434594
63	0xbea26e73	-0.3172489
64	0x3df20a51	0.11818374
65	0xbebd82cd	-0.37013856
66	0x3eadcc17	0.3394477
67	0xbe26a953	-0.1627553
68	0x3a630690	0.00086603407
69	0x3e9e86db	0.30962262
70	0xbd798293	-0.06091554
71	0xbe291475	-0.1651171
72	0xbdc74c50	-0.09731352
73	0x3e9dcc63	0.30819997
74	0x3e51f362	0.20503
75	0xbe7c2c2b	-0.24626224
76	0x3e25b72c	0.16183156
77	0x3e7d4ee7	0.2473713
78	0xbe9274be	-0.28604692
79	0xbce8768b	-0.028376838
80	0xbead4f89	-0.33849743
81	0xbd9f14a7	-0.07767611
82	0x3ea99dc7	0.33128187
83	0x3e19dbf8	0.15025318
84	0xbea39aa9	-0.31953934
85	0xbddb8777	-0.10719197
86	0x3d48d9a6	0.04903569
87	0x3ea3be60	0.31981182
88	0xbe873bc9	-0.264128
89	0x3e6daebb	0.23211186
90	0xbe7f5e29	-0.24938263
91	0xbeb24acf	-0.348227
92	0x3d0ffae0	0.035151362
93	0x3cbbef5a	0.02294128
94	0xbe015560	-0.12630224
95	0xbe9fb3e6	-0.3119194
96	0x3e0d8f0a	0.13824096
97	0x3e8d9d47	0.27659056
98	0x3e4e66ac	0.20156354
99	0xbe8f9089	-0.2803996
100	0x3ea89fd8	0.3293445
101	0x3e3884d8	0.18019426
102	0xbdf8052f	-0.12110364
103	0x3d0f21fa	0.034944512
104	0xbe38c67f	-0.1804447
105	0x3cea6bb8	0.028615817
106	0xbe427f8f	-0.18993972
107	0xbe1692f8	-0.14704502
108	0x3e32415a	0.17407742
109	0xbeaa892b	-0.33307776
110	0xbe47d034	-0.19513017
111	0x3dd02dcd	0.10164986
112	0x3cbb0c90	0.022833139
113	0x3d76cefd	0.060255993
114	0x3dd1df87	0.102477126
115	0x3e886d9e	0.2664613
116	0x3e0bd5de	0.13655803
117	0xbe87089b	-0.26373753
118	0xbe003c04	-0.12522894
119	0x3eb57b09	0.3544543
120	0x3df2a635	0.11848108
121	0xbe82e162	-0.25562578
122	0xbda6a834	-0.08137551
123	0xbe5f68a1	-0.21817257
124	0xbe19e768	-0.1502968
125	0x3e78a29a	0.24280778
126	0xbcde3931	-0.02712688
127	0x3deb1704	0.11478999
128	0xbe6e04c6	-0.23244008
129	0x3ceb1b77	0.02869962
130	0x3df27c84	0.11840156
131	0xbe8eefba	-0.27917272
132	0xbe0468e4	-0.12930638
133	0xbdf4ae2d	-0.11947284
134	0xbe7c8d78	-0.24663341
135	0x3e8582eb	0.26076445
136	0x3e46eca3	0.19426207
137	0x3eb23d00	0.34812164
138	0x3d808671	0.06275643
139	0x3dd1e2ab	0.102483116
140	0xbe503a99	-0.20334853
141	0x3e7cd12f	0.24689172
142	0xbbde4ad4	-0.0067838226
143	0xbe5b063e	-0.213891
144	0xbe2c6138	-0.16833961
145	0xbe7da635	-0.24770434
146	0x3ea90ef8	0.33019233
147	0x3ea53596	0.32267445
148	0xbe31c045	-0.17358501
149	0xbe867603	-0.2626191
150	0xbe80df09	-0.25170162
151	0x3d34213c	0.043977007
152	0xbd125f10	-0.03573519
153	0xbe7c9018	-0.24664342
154	0x3e178212	0.14795712
155	0xbdb903a0	-0.090338945
156	0xbca88ce4	-0.020574994
157	0xbcc9e73b	-0.024646392
158	0x3df04388	0.117316306
159	0x3eb90f8e	0.3614468
160	0x3e90ffad	0.28320065
161	0xbd45f152	-0.048325844
162	0xbe2141a2	-0.15747693
163	0x3e59d3f3	0.21272258
164	0x3e69b286	0.22822008
165	0x3dd26482	0.102730766
166	0xbdc04c78	-0.09389585
167	0xbe3b438d	-0.18287487
168	0x3e433058	0.1906141
169	0xbe3a26b6	-0.1817883
170	0xbe83f941	-0.25776103
171	0xbe11d1ac	-0.1424014
172	0xbea8b10c	-0.32947576
173	0xbe362c35	-0.17790301
174	0xbc989bf5	-0.018629054
175	0xbc7421fd	-0.014900682
176	0xbdab13bc	-0.083533734
177	0x3c915a11	0.017743142
178	0xbd07f445	-0.033191938
179	0xbe8c687d	-0.27423468
180	0x3dc0b7d5	0.09410063
181	0x3e3451a1	0.17609264
182	0x3d020748	0.031745225
183	0xbe0f4283	-0.13990216
184	0xbe86efc5	-0.26354805
185	0x3ec01ee7	0.37523577
186	0x3d2ab3ef	0.041675504
187	0x3e917e2b	0.2841657
188	0xbcd31fd6	-0.025772016
189	0xbd139f51	-0.036040608
190	0xbe9d5c5f	-0.30734536
191	0xbeb1176b	-0.3458818
192	0x3e99d948	0.30048585
193	0xbe75359a	-0.23946229
194	0xbdf8b612	-0.12144102
195	0x3d3114a9	0.043232594
196	0x3da5292b	0.08064493
197	0x3d5b65c1	0.053563837
198	0xbe8de3c4	-0.27712834
199	0xbde0764a	-0.10960062
200	0xbe6d199b	-0.23154299
201	0x3e7fb9a2	0.24973157
202	0x3e951f4f	0.2912545
203	0xbe48de3b	-0.19616024
204	0xbdd9261f	-0.10602974
205	0xbe8b8330	-0.27248526
206	0x3a082ff4	0.0005195134
207	0x3e4eb7cd	0.20187302
208	0x3d8678d7	0.06566017
209	0x3e185ebd	0.1487989
210	0xbd3d7e98	-0.046263307
211	0x3c3f1b13	0.01166417
212	0xbe119c7c	-0.1421985
213	0x3e0ea81e	0.13931319
214	0xbe36774d	-0.17818947
215	0x3d709175	0.05873247
216	0xbe962430	-0.29324484
217	0xbe652ec6	-0.22381124
218	0xbe94473e	-0.28960603
219	0x3dd3027b	0.103032075
220	0xbe8a156f	-0.26969478
221	0x3d26bfeb	0.04071037
222	0x3ea43c00	0.32077026
223	0x3ea1ce47	0.3160269
224	0x3c7728f3	0.015085447
225	0xbd95594a	-0.07292421
226	0x3e4eb983	0.20187955
227	0x3e190280	0.1494236
228	0x3df72215	0.120670475
229	0x3e641aed	0.22275896
230	0x3e61bc47	0.22044478
231	0x3cd47bee	0.025938
232	0xbe3406e5	-0.17580755
233	0x3e1877c5	0.14889438
234	0x3e6cba33	0.23117904
235	0xbe8b7408	-0.27236962
236	0xbc927744	-0.017879136
237	0xbe96c5c5	-0.2944776
238	0xbe22f980	-0.15915489
239	0xbc6611e4	-0.014042351
240	0xbc6c1d39	-0.014411264
241	0x3e428115	0.18994553
242	0xbd34433b	-0.04400943
243	0x3db68197	0.08911436
244	0xbe0a22db	-0.13489859
245	0xbe805e20	-0.25071812
246	0xbeb5a68d	-0.3547863
247	0xba533625	-0.00080570794
248	0x3e68e054	0.22741824
249	0xbe1cc066	-0.15307769
250	0xbe8a188d	-0.26971856
251	0xbe08e837	-0.13369833
252	0xbe397c45	-0.18113811
253	0xbec358e7	-0.38153765
254	0xbe5c1ead	-0.21496077
255	0x3e19f41c	0.15034527

layers.0.bias f4 [64]
0	0x3e86feb2	0.26366192
1	0xbe0a7123	-0.1351972
2	0x3e7ff25f	0.24994801
3	0xbe73bc18	-0.23802221
4	0xbd248386	-0.040164493
5	0xbdfc6967	-0.123247914
6	0x3e73cd96	0.23808894
7	0x3e3674ee	0.17818043
8	0xbd60e81f	-0.054908868
9	0x3e1f04b5	0.1552914
10	0x3e90f471	0.28311494
11	0xbe64ef4e	-0.22356912
12	0xbe9a1312	-0.30092674
13	0x3e174ad8	0.14774644
14	0x3e40a7ab	0.1881396
15	0x3e8790ea	0.26477748
16	0x3e4c8046	0.19970807
17	0xbde18530	-0.110117316
18	0xbe5dd755	-0.21664174
19	0xbb1bc65a	-0.002376935
20	0x3ea0e6cf	0.31426093
21	0x3e9d3969	0.30707863
22	0xbe6bba1d	-0.23020215
23	0x3eac802c	0.33691537
24	0xbe8a8a0e	-0.27058452
25	0xbd3008ca	-0.042977132
26	0x3eb9cb51	0.3628793
27	0xbe7459b1	-0.2386234
28	0xbeb6da5f	-0.3571348
29	0xbeafdaae	-0.34346527
30	0xbe572167	-0.21008836
31	0x3cf432cd	0.02980938
32	0xbe167534	-0.14693147
33	0x3eb6bf1b	0.35692677
34	0x3d2e38be	0.042534582
35	0x3dee73f3	0.11643209
36	0x3e12f16a	0.14349905
37	0xbd61c8bd	-0.05512308
38	0x3de4fa47	0.11180549
39	0x3e5db49b	0.21650927
40	0xbca50c45	-0.020147452
41	0xbd79e766	-0.061011694
42	0x3d8d6fcc	0.06906089
43	0xbe1ef9a1	-0.15524913
44	0x3de55178	0.111971796
45	0x3e8b1dba	0.27171117
46	0xbd1cf233	-0.038316917
47	0x3c026c58	0.0079604015
48	0x3e078adb	0.13236563
49	0x3d4a767a	0.049429394
50	0xbe056544	-0.13026911
51	0x3c22529b	0.00990739
52	0x3ddfdd9b	0.1093094
53	0x3e6ed11f	0.23321961
54	0x3e06e1b1	0.13172032
55	0xbe8fe06d	-0.2810091
56	0x3d310b34	0.043223575
57	0xbd93fc56	-0.07225864
58	0x3e7c465c	0.24636215
59	0x3e57676e	0.21035549
60	0xbe0c139a	-0.13679352
61	0x3e630490	0.22169709
62	0x3d9cdbcb	0.0765911
63	0xbeb71cd4	-0.35764182

layers.2.weight f4 [64, 64]
0	0xbdd2fb5e	-0.10301851
1	0x3da59832	0.080856696
2	0xbc3f8307	-0.011688954
3	0xbda06445	-0.07831625
4	0xbce98ef6	-0.028510552
5	0xbb4bbfe8	-0.0031089727
6	0x3ce8186d	0.02833196
7	0xbc9f93ae	-0.019479599
8	0x3d6fc6c7	0.05853918
9	0xbcc8d0fc	-0.024513714
10	0x3dd1b04b	0.10238703
11	0x3d31d148	0.043412477
12	0x3cc71171	0.024300309
13	0xbda31bde	-0.079642996
14	0x3cebdfad	0.02879318
15	0x3d708a6d	0.058725763
16	0xbd71b7d6	-0.05901321
17	0xbd448444	-0.0479777
18	0xbdb1ed0d	-0.08687792
19	0xbd7fb773	-0.06243081
20	0xbba7cf6d	-0.0051211626
21	0xbcd88929	-0.02643259
22	0x3cb5f169	0.02220984
23	0xb8d7bf4c	-0.00010287631
24	0x3c577c7d	0.013152239
25	0xbcd6e7d5	-0.026233593
26	0xbde211c1	-0.110385425
27	0xbddccf52	-0.10781731
28	0xbd36b3b1	-0.04460496
29	0xbc8ed934	-0.017437555
30	0xbde48fd4	-0.111602455
31	0x3d4cce52	0.05000145
32	0xbd0014d5	-0.031269867
33	0x3d16b202	0.036790855
34	0x3d92e921	0.07173372
35	0x3db7e234	0.08978692
36	0xbcf5889e	-0.02997237
37	0x3d2078bd	0.039177645
38	0x3d8e0bb9	0.0693583
39	0xbcb6b16b	-0.022301396
40	0xbcb4694b	-0.022022864
41	0x3cf02662	0.029315177
42	0x3daf7148	0.085665286
43	0xbcf54305	-0.029939184
44	0x3d87372c	0.0660232
45	0x3d82b5f5	0.06382362
46	0x3c9809b2	0.01855931
47	0xbd0a778b	-0.03380541
48	0x3ceb9e3d	0.028761977
49	0x3d4ed7cb	0.050498765
50	0xbd2ca9c1	-0.042154077
51	0x3cc20645	0.02368463
52	0x3d4f9522	0.050679334
53	0x3d035ffe	0.032073967
54	0x3d67e15b	0.0566114
55	0xbb8ac129	-0.0042344523
56	0x3c1fe2df	0.00975868
57	0x3cc4865a	0.023989845
58	0x3bc84698	0.006111931
59	0xbdbe670d	-0.09296999
60	0xbcb9c939	-0.022678958
61	0x3cbf56b7	0.023356779
62	0x3d12e087	0.035858657
63	0xbd76a8f4	-0.06021972
64	0x3dd56016	0.104187176
65	0xbda914eb	-0.08255943
66	0xbd9092da	-0.0705926
67	0xbc949b4d	-0.01814046
68	0xbd5fc4ca	-0.054631032
69	0x3c12c35c	0.00895771
70	0xbc875660	-0.016520679
71	0x3dd12e38	0.10213894
72	0x3da1b3a0	0.07895589
73	0x3bf7d77e	0.0075635305
74	0xbd21606d	-0.0393986
75	0xbdb013b8	-0.08597511
76	0x3b7f6cea	0.003897483
77	0xbcd16a30	-0.02556333
78	0xbdba8481	-0.09107304
79	0xbd9faee0	-0.07797027
80	0x3d92c546	0.07166533
81	0xbda459c5	-0.08024935
82	0x3c8679bc	0.01641547
83	0xbd65e6a6	-0.056128167
84	0x3d5ecadb	0.054392677
85	0x3cff207a	0.031143416
86	0x3d130e91	0.035902563
87	0xbcbe3345	-0.023217807
88	0xbda283e6	-0.07935314
89	0x3cf26035	0.02958689
90	0x3dd0f9de	0.102039084
91	0x3deae225	0.11468915
92	0xbd9729b5	-0.07381002
93	0xbd8f0c84	-0.06984809
94	0x3ddae894	0.10688892
95	0x3d0f4582	0.034978397
96	0x3d7e5427	0.062091973
97	0xbd066dad	-0.03281944
98	0xbcc172e3	-0.023614353
99	0xbc0a7a26	-0.008451974
100	0x3dc7b077	0.09750455
101	0x3c12571a	0.008931899
102	0xbd3ed2ee	-0.046587877
103	0xbbd7fb2a	-0.0065912204
104	0xbdb254c9	-0.08707578
105	0x3d63ce94	0.05561693
106	0xbd6514ae	-0.055927925
107	0x3da06b62	0.07832982
108	0x3cc9dfde	0.024642881
109	0x3d6f4fc1	0.05842567
110	0xbca52f15	-0.020164052
111	0x37a39ef8	1.950514e-05
112	0xbc7ace0f	-0.015307917
113	0xbd5c8687	-0.053839233
114	0xbd943411	-0.072364934
115	0x3dd18318	0.10230082
116	0xbdc5c264	-0.09656218
117	0x3da209cc	0.07912025
118	0xbd9addff	-0.07561874
119	0x3ce3cbae	0.027807083
120	0x3de5974d	0.11210499
121	0x3d177f01	0.036986355
122	0xbd6e0ee3	-0.058119666
123	0xbd34e4db	-0.044163566
124	0x3d00f2b2	0.031481452
125	0xbd2f609a	-0.042816736
126	0xbdcaee9b	-0.09908792
127	0xbdbab96c	-0.09117398
128	0x3c6ebd76	0.014571538
129	0xbda745ff	-0.081676476
130	0xbd82b6fd	-0.063825585
131	0xbd968b05	-0.073507346
132	0xbd610daf	-0.05494469
133	0x3dccb07b	0.099945985
134	0xbd0c6e8e	-0.03428512
135	0xbd4f1691	-0.05055863
136	0x3c5e10a0	0.013553768
137	0xbdab3caf	-0.08361184
138	0x3b96c743	0.0046013906
139	0xbc103249	-0.008801051
140	0x3d59e7c4	0.053199545
141	0x3d8a128e	0.0674182
142	0xbc43eae8	-0.0119578615
143	0xbd80edf3	-0.06295385
144	0x3d2c347b	0.042042237
145	0x3cf2c9f2	0.02963731
146	0xbd9a4df0	-0.07534397
147	0xb78b3e7e	-1.6599191e-05
148	0x3d42d1a8	0.047563225
149	0x3d79a467	0.060947802
150	0x3dce89ff	0.100849144
151	0x3ccf6f28	0.025321558
152	0xbda3080d	-0.0796052
153	0xbca242a7	-0.019807173
154	0xbc5f09b3	-0.013613152
155	0x3df065d5	0.11738173
156	0xbd4ba0d8	-0.04971394
157	0x3d14d76c	0.036338255
158	0xbc31deee	-0.010856373
159	0x3d50873d	0.050910223
160	0xbd4c2fea	-0.049850382
161	0x3d9fc8ac	0.07801947
162	0x3dcd1f11	0.10015691
163	0x3db502c3	0.088384174
164	0x3d2546d4	0.04035075
165	0xbdca3eda	-0.09875269
166	0xbc30f30e	-0.010800136
167	0x3d972e9e	0.073819384
168	0xbdbc03ce	-0.09180413
169	0xbd45f28a	-0.048327006
170	0xbdb75597	-0.08951872
171	0xbcb02260	-0.021500766
172	0x3da2e1de	0.07953237
173	0xbcada2c7	-0.021195782
174	0xbd5ea260	-0.05435407
175	0xbd42d2c0	-0.047564268
176	0x3d9bf533	0.076151274
177	0x3c266077	0.010154835
178	0xbb1f5aa5	-0.0024315503
179	0xbd9ec00e	-0.07751475
180	0xbd94a81d	-0.072586276
181	0xbb97f343	-0.0046371534
182	0xbda37280	-0.079808235
183	0xbd8c94e3	-0.068643354
184	0xbd40d695	-0.04707964
185	0xbcb8285f	-0.022480188
186	0xbd684855	-0.056709606
187	0xbdaf6754	-0.0856463
188	0x3b6bd8e4	0.0035987431
189	0xbd2acdfc	-0.04170035
190	0x3d3f7e38	0.04675123
191	0x3a413893	0.0007370796
192	0x3ca51a52	0.020154152
193	0x3d54c732	0.05194778
194	0x3c531320	0.012882978
195	0x3c9a7b7f	0.018857716
196	0xbd931a80	-0.07182789
197	0x3d798f0f	0.060927447
198	0xbdbbad2f	-0.091638915
199	0x3c53acc1	0.012919606
200	0x3d72d0f2	0.059281297
201	0x3dfadb28	0.12248832
202	0xbc8a02c2	-0.016847018
203	0x3d1d73bb	0.038440447
204	0x3dcfea3c	0.101520985
205	0x3d92fd94	0.071772724
206	0x3c0d4065	0.00862131
207	0x3d593b28	0.05303493
208	0xbd2de9f9	-0.04245946
209	0x3bd49bb6	0.0064882888
210	0x3d175b8c	0.03695254
211	0xbcb7d8fc	-0.022442333
212	0x3d383041	0.044967894
213	0xbdae9cef	-0.085260265
214	0xba5d112e	-0.0008433041
215	0x3db0e3c5	0.086371936
216	0xbd97ca70	-0.07411659
217	0xbdcfbb2d	-0.10143123
218	0xbd0243cd	-0.03180294
219	0xbdd66bfa	-0.10469814
220	0x3d026146	0.03183105
221	0xbd97d4a5	-0.074136056
222	0x3c494dfb	0.012286658
223	0xbd2eaf5e	-0.042647712
224	0xbdc65fd8	-0.096862495
225	0xbd048cba	-0.03236077
226	0xbd9e46c8	-0.07728344
227	0x3d6f91b4	0.058488563
228	0x3d43aa14	0.04776962
229	0x3d0df31c	0.034655675
230	0x3d37c59d	0.044866193
231	0xbda4d84a	-0.08049066
232	0xbda46a51	-0.08028091
233	0xbda29cb9	-0.07940049
234	0xbd970683	-0.07374289
235	0x3c429752	0.011876898
236	0xbd6e7f0f	-0.05822664
237	0xbcef4cae	-0.029211368
238	0xbd89f943	-0.06736996
239	0xbd1176a5	-0.03551354
240	0x3d48b856	0.04900392
241	0xbd191a7e	-0.03737878
242	0xbd0f4d80	-0.03498602
243	0xbdd65d4f	-0.10467016
244	0xbd523f98	-0.05133018
245	0x3db12e25	0.086513795
246	0xbd82c42c	-0.06385073
247	0x3d69d2ef	0.057085928
248	0xbce0917c	-0.027413122
249	0x3d5c6d07	0.053814914
250	0x3d030a59	0.03199229
251	0x3d14bd9a	0.03631363
252	0x3d85122a	0.06497605
253	0x3c3d3dbd	0.011550364
254	0x3d47fd77	0.048825707
255	0xbd8fd4a3	-0.07022979

layers.2.bias f4 [64]
0	0x3dab2ad5	0.08357779
1	0x3d154d94	0.036450937
2	0x3d3945e7	0.04523268
3	0xbd8c1a4f	-0.068409555
4	0x3df08270	0.11743629
5	0x3d26c542	0.040715463
6	0x3da4b043	0.08041432
7	0xbc93171d	-0.017955357
8	0xbdbdd0e6	-0.0926836
9	0xbd518027	-0.051147606
10	0x3ce14b51	0.027501734
11	0xbcccd075	-0.025001744
12	0xbd95b0e6	-0.07309131
13	0xbd33ca70	-0.04389423
14	0xbc31d675	-0.010854353
15	0x3d55aa3b	0.052164298
16	0x3d4ab881	0.049492363
17	0xbb7f7366	-0.0038978695
18	0x3c915fa4	0.0177458
19	0xbc3707fd	-0.011171338
20	0xbd446973	-0.047952127
21	0xbd499929	-0.04921833
22	0x3dbe8554	0.09302774
23	0xbc29d7de	-0.010366408
24	0x3d41e9fc	0.047342286
25	0x3ddb63c0	0.10712385
26	0x3da0036f	0.07813155
27	0x3d550f69	0.05201665
28	0x3d87c892	0.066300526
29	0xbd4b6599	-0.049657438
30	0xbc489108	-0.012241609
31	0xbc603ffd	-0.013687131
32	0xbd5b1b89	-0.053493056
33	0x3ad075f4	0.0015904293
34	0x3d8a0016	0.06738298
35	0x3dd8c2ea	0.10584052
36	0x3da7c785	0.08192352
37	0xbdbfa126	-0.093569085
38	0x3da8004f	0.08203184
39	0x3d5fd80a	0.05464939
40	0x3d543257	0.05180582
41	0x3da69709	0.081342764
42	0x3d3eaf0d	0.04655366
43	0xbdc24989	-0.09486682
44	0x3cdade1c	0.026717238
45	0xbd214803	-0.039375316
46	0x3d3bc2d8	0.045840114
47	0xbb9c7b51	-0.0047754426
48	0x3db8b60e	0.09019099
49	0x3d99fbd7	0.07518738
50	0xbd1c8d40	-0.038220644
51	0x3d5bdf59	0.053679798
52	0xbc284a82	-0.01027167
53	0xbdc92f11	-0.0982343
54	0x3deb42dc	0.11487362
55	0xbd266b07	-0.040629413
56	0x3d05f074	0.032700017
57	0xbce09192	-0.027413163
58	0xbd59673e	-0.053076975
59	0xbce45e87	-0.027877105
60	0xbd8ade31	-0.06780661
61	0xbd36fb10	-0.044673026
62	0xbd8ec8ca	-0.06971891
63	0xbc4f3b59	-0.012648427

layers.4.weight f4 [81, 64]
0	0x3d3e0e8d	0.046400595
1	0x3b650b1f	0.0034949256
2	0xbde073f9	-0.1095962
3	0x3c38ea4d	0.01128633
4	0x3d04e4fc	0.03244494
5	0x3dd8a7e0	0.105788946
6	0xbc72386f	-0.014783963
7	0x3ddfeae0	0.10933471
8	0x3dc14668	0.09437257
9	0xbcd29f08	-0.025710598
10	0xbd72e974	-0.05930467
11	0x3d556c22	0.052105077
12	0x3d95ab97	0.07308119
13	0x3d506457	0.05087694
14	0xbbf942e3	-0.0076068505
15	0xbd6ba50f	-0.05753046
16	0x3d84c4b3	0.0648283
17	0x3d7656fb	0.060141545
18	0x3d1e0aa7	0.038584378
19	0x3b65a2cd	0.0035039664
20	0x3db7c462	0.08973004
21	0xbcba9913	-0.02277807
22	0xbd8aaf93	-0.067717694
23	0xbd8b818a	-0.06811817
24	0x3d6c77ba	0.057731368
25	0xbcb2da88	-0.02183272
26	0xbd007574	-0.031362012
27	0xbd8c1d93	-0.06841578
28	0xbdcbfbb0	-0.09960115
29	0xbd622bec	-0.05521767
30	0xbc3601d2	-0.011108832
31	0x3d7d7110	0.061875403
32	0xbaede601	-0.0018150212
33	0xbc81b9c4	-0.01583565
34	0xbda22abb	-0.079183064
35	0xbd35b3fb	-0.044361096
36	0x3d20174c	0.039084718
37	0x3d7c96af	0.06166714
38	0xbd0d7a6c	-0.03454058
39	0xbd9929ce	-0.07478677
40	0x3c3a483c	0.011369761
41	0x3db15cf3	0.08660307
42	0xbda0eeab	-0.07858022
43	0x3dd3ab15	0.10335366
44	0x3d2ec0a2	0.042664178
45	0xbcb22221	-0.02174479
46	0x3ce94092	0.028473172
47	0xbdcd928d	-0.10037718
48	0x3ba6c115	0.005088935
49	0x3d8c71e7	0.06857663
50	0x3c75d424	0.015004192
51	0xbd8873ea	-0.06662734
52	0xbd617df4	-0.05505176
53	0xbd9a8cec	-0.0754641
54	0x3b5e521b	0.003392345
55	0xbd39ddf1	-0.045377675
56	0x3c43b16c	0.011944156
57	0x3d233ee1	0.039854888
58	0xbd0dc101	-0.03460789
59	0x3d8a79b8	0.06761497
60	0xbdbddf01	-0.0927105
61	0xbcab696f	-0.020924298
62	0x3d34c6fd	0.044135083
63	0x3d6611dc	0.056169376
64	0xbb8e1c00	-0.004336834
65	0xbbb223fb	-0.005436418
66	0xbd959250	-0.073032975
67	0x3da706f3	0.08155622
68	0xbd3770a0	-0.044785142
69	0xbdaf6274	-0.085637
70	0xbcd52529	-0.026018696
71	0xbce58338	-0.028016672
72	0xbdbd1b2a	-0.09233697
73	0x3da2c515	0.07947747
74	0xbd29bafe	-0.041438095
75	0x3dcd344f	0.10019743
76	0xbc6968b9	-0.014246159
77	0x3d927788	0.07151705
78	0x3d14cbd2	0.03632719
79	0xbd875b15	-0.066091694
80	0xbce9df36	-0.028548818
81	0xbddcbb71	-0.10777939
82	0xbbcbc5fe	-0.006218671
83	0x3c5eb084	0.013591889
84	0xbd96bad5	-0.07359854
85	0xbcab1c67	-0.020887567
86	0xbd6e1d80	-0.058133602
87	0x3c07e13c	0.008293446
88	0xbcd4aefa	-0.025962342
89	0x3c1ceaf7	0.009577504
90	0xbd4a03e0	-0.0493201
91	0x3da0b165	0.07846335
92	0x3d337adc	0.04381834
93	0x3c95202c	0.018203817
94	0xbd81de13	-0.063411854
95	0xbda3b5e4	-0.07993677
96	0x3d099edf	0.033598777
97	0xbdaa36b0	-0.08311212
98	0x3d983c30	0.07433355
99	0xbd11ffbf	-0.03564429
100	0x3db732eb	0.08945259
101	0x3d3912b5	0.045183856
102	0xbd3d57b1	-0.046226207
103	0xbde17ffd	-0.1101074
104	0xbcb0f351	-0.021600397
105	0xbdcda99d	-0.10042117
106	0x3d575ba0	0.052577615
107	0xbc5254da	-0.012837613
108	0xbca5c664	-0.020236202
109	0x3c1377cb	0.009000729
110	0x3cb64084	0.02224756
111	0x3d80900a	0.06277473
112	0x3dabe3b2	0.08393039
113	0x3d43282f	0.047645744
114	0xbda54c5b	-0.08071204
115	0x3cecae09	0.02889158
116	0x3cf57e7b	0.029967537
117	0xbd6d0fcb	-0.05787639
118	0xbb837e0d	-0.004012829
119	0x3b1bcee5	0.0023774442
120	0x3d1ca07c	0.038238987
121	0xbc814997	-0.01578216
122	0x3c874878	0.016514048
123	0x3c53f35b	0.012936438
124	0xbcb22848	-0.021747723
125	0xbd43fc4a	-0.047848023
126	0x3cfb82b8	0.03070198
127	0x3d178810	0.036994994
128	0xbd562291	-0.05227906
129	0xbbc25686	-0.0059307246
130	0x3dc3c7f9	0.09559626
131	0xbca1ef9e	-0.019767579
132	0x3b6f0362	0.0036470522
133	0xbd9e0901	-0.07716561
134	0x3df65830	0.12028539
135	0x3d6f97d1	0.058494393
136	0x3d7e3d56	0.062070213
137	0xbdb0f8b1	-0.08641184
138	0xbbbccb05	-0.0057615065
139	0x3d8969f5	0.06709663
140	0xbd63c325	-0.055606026
141	0xbd6b9a95	-0.057520468
142	0xbdaab250	-0.08334792
143	0x3da5a938	0.080889165
144	0xbd97ebbe	-0.07418011
145	0xbe0a00f7	-0.1347693
146	0x3d028ecb	0.03187446
147	0x3cc95719	0.024577664
148	0xbcf7efc7	-0.030265702
149	0x3ce31777	0.02772115
150	0x3cd1e4af	0.02562174
151	0x3d69b8ba	0.057060935
152	0xbd83a749	-0.064283915
153	0x3d0fc714	0.035101965
154	0x3d2e837f	0.042605873
155	0x3d0d5e08	0.034513503
156	0xbd5ec5eb	-0.054387968
157	0xbdf26e56	-0.11837451
158	0x3be93775	0.0071172067
159	0x3d15ee2e	0.0366041
160	0xbd609d3a	-0.054837443
161	0x3da951e4	0.082675725
162	0x3da0a485	0.078438796
163	0x3d581b39	0.052760337
164	0xbd1e72ba	-0.03868363
165	0x3cc0ae59	0.023520635
166	0x3d6fb3af	0.05852097
167	0x3d85eb84	0.06539062
168	0x3ddd3df1	0.1080283
169	0x3971fe1c	0.00023078214
170	0x3ba03fb4	0.0048904065
171	0xbd5b0457	-0.053470936
172	0x3d2da4bd	0.042393435
173	0x3d9dcbe6	0.07704906
174	0x3d868b21	0.065695055
175	0xbd9d2711	-0.07673467
176	0x3d50caea	0.050974764
177	0x3d0e6ad1	0.034769837
178	0xbd3230d2	-0.04350359
179	0x3d5871d8	0.052842945
180	0x3c0f92ed	0.008763057
181	0xbd1ba9b5	-0.038003642
182	0x3d0eba47	0.034845617
183	0xbd0fee2a	-0.03513924
184	0x3d429552	0.047505684
185	0x3dbf726d	0.09347997
186	0xbcb6617f	-0.022263287
187	0x3d95feae	0.07323967
188	0xbb110b4a	-0.0022131973
189	0x3dc691b8	0.096957624
190	0xbcc31c0b	-0.023817083
191	0x3c77de99	0.015128755
192	0xbd18f4a1	-0.03734267
193	0xbdc9bd35	-0.098505415
194	0xbd506c95	-0.050884802
195	0x3d3ea731	0.046546165
196	0xbc652b91	-0.013987438
197	0xbde9ca5b	-0.11415549
198	0x3d8fa584	0.070139915
199	0xbd896337	-0.06708377
200	0xbd03168f	-0.032003935
201	0x3dd36192	0.103213444
202	0x3d45e080	0.048309803
203	0x3d503449	0.050831113
204	0x3d133352	0.035937615
205	0x3d024081	0.031799797
206	0xbdce0fb3	-0.10061588
207	0xbd30fe73	-0.04321141
208	0xbd3672a8	-0.04454294
209	0x3bf468bd	0.007458775
210	0x3da642c9	0.08118207
211	0x3d0f0a9a	0.03492222
212	0xbd73bbc1	-0.059505228
213	0xbd44c428	-0.04803863
214	0x3d189ee8	0.03726092
215	0xbc427b04	-0.0118701495
216	0x3c91a3fd	0.017778391
217	0xbd03aef9	-0.03214929
218	0xbcf5bba8	-0.029996708
219	0x3d61e8b8	0.05515358
220	0xbdebde71	-0.11517037
221	0x3d5b597d	0.05355214
222	0x3d6fed61	0.05857599
223	0xbd5194fa	-0.051167466
224	0x3d15b88c	0.03655295
225	0xbd9210cc	-0.0713211
226	0xbc9cfdba	-0.019163955
227	0xbd3282bd	-0.043581713
228	0xbd2d4f80	-0.042312145
229	0x3dbcf6ed	0.09226785
230	0x3db5cc6f	0.08876883
231	0xbd87fc4c	-0.06639919
232	0x3c1cc5f4	0.00956868
233	0xbdd27229	-0.102756806
234	0x3ba7dab9	0.0051225093
235	0xbd3c49f6	-0.045968972
236	0x3c7829fa	0.015146727
237	0x3ce69d2c	0.028151117
238	0xbdb69e29	-0.089168854
239	0x3de66ac2	0.11250831
240	0xbd8499b5	-0.0647463
241	0x3d93b217	0.07211702
242	0xbda5cff0	-0.080963016
243	0xbd82e835	-0.06391946
244	0xbd2d21b2	-0.042268462
245	0x3ba10690	0.0049141124
246	0x3d15a7b4	0.036536887
247	0x3dbadf43	0.09124615
248	0x3d830046	0.063965365
249	0x3c494c65	0.01228628
250	0xbc5c4db7	-0.013446263
251	0x3ce736d9	0.028224396
252	0xbd212404	-0.039340988
253	0xbdb11ac1	-0.08647681
254	0xbd7d43e6	-0.06183233
255	0x3d9cbdba	0.07653375

layers.4.bias f4 [81]
0	0x3d692879	0.056923363
1	0x3c9453cf	0.01810637
2	0x3cbda7cb	0.023151299
3	0x3ce7f910	0.028317004
4	0x3daad23e	0.08340882
5	0x3d1af22f	0.03782862
6	0xbcec0863	-0.028812593
7	0xbd868a44	-0.06569341
8	0xbd8479ef	-0.064685695
9	0xbdd4b6ca	-0.10386427
10	0xbd20145b	-0.039081912
11	0xbdcdaa43	-0.100422405
12	0x3d75090b	0.059823077
13	0x3d0ee319	0.034884546
14	0x3ca959d7	0.020672722
15	0xbc9940de	-0.018707689
16	0x3d834534	0.06409684
17	0xbd7d35da	-0.061818935
18	0x3d93747e	0.071999535
19	0xbcbb99f9	-0.022900568
20	0x3d996fea	0.07492049
21	0xbcadca59	-0.021214651
22	0xbd9d37cf	-0.0767666
23	0x3ccab66a	0.024745185
24	0x3dac0fca	0.08401449
25	0x3ce86d90	0.028372556
26	0xbba09254	-0.004900256
27	0xbdaa922e	-0.08328663
28	0xbdb37e60	-0.087643385
29	0x3db7b346	0.089697406
30	0x3d1288db	0.035775047
31	0xbd1587f3	-0.036506604
32	0x3d1fd211	0.039018694
33	0xbd75e6fa	-0.06003473
34	0xbd84fd63	-0.06493642
35	0x3c4118ea	0.011785725
36	0x3da65882	0.0812235
37	0x3d34fbf9	0.044185612
38	0x3b9867bb	0.0046510375
39	0x3cb711d3	0.022347366
40	0x3d7353a4	0.059405938
41	0xbb20ccf8	-0.0024536233
42	0xbd8408a7	-0.06446963
43	0x3c85a402	0.016313557
44	0x3da55801	0.08073426
45	0x3ca2b527	0.01986177
46	0xbb71e577	-0.0036910453
47	0xbddc0131	-0.10742415
48	0xbdf1d098	-0.11807364
49	0xbdb9e8a6	-0.09077577
50	0x3ceb1120	0.02869469
51	0x3d5d9ba6	0.054103516
52	0xbd29e8fa	-0.04148195
53	0xbbbf1b77	-0.0058321315
54	0xbbe85e3b	-0.0070913113
55	0xbdda4b56	-0.106589004
56	0xbd81fc47	-0.06346946
57	0xbd147832	-0.03624744
58	0x3dbd0565	0.092295446
59	0x3dd468a6	0.103715226
60	0xbcf6dda8	-0.03013499
61	0x3da4cd60	0.08046985
62	0x3cb7d1e8	0.022438958
63	0xbc9767ae	-0.018482056
64	0x3db61525	0.08890752
65	0xb9697565	-0.00022264344
66	0x3d44332e	0.04790037
67	0x3d87cf9a	0.06631394
68	0xbdbd0dd1	-0.09231151
69	0x3d885c9e	0.0665829
70	0xbd1040bf	-0.035217997
71	0xbd98f075	-0.074677385
72	0xbd23dd53	-0.040005993
73	0x3d83ef23	0.06442096
74	0xbdc67593	-0.09690394
75	0xbdae44da	-0.08509226
76	0xbc923990	-0.017849714
77	0x3d90e839	0.07075543
78	0xbd320ed5	-0.043471176
79	0x3c57d716	0.013173839
80	0x3bf58057	0.007492106
