src/controller/models/dqn_agent_target.pth (torch, 42753 bytes, 6 tensors)

layers.0.weight f4 [64, 6]
0	0xbe1babf4	-0.15202314
1	0x3dad5114	0.0846273
2	0x3d7922ec	0.06082432
3	0x3e7dedaf	0.247977
4	0x3e54946b	0.20759742
5	0xbdeff229	-0.1171611
6	0x3e8c3318	0.2738273
7	0xbd5d0cf3	-0.053967427
8	0x3daada0a	0.08342369
9	0xbdeb23dd	-0.1148145
10	0xbcf04bdb	-0.029333046
11	0xbe77866d	-0.24172373
12	0xbe6fd4ed	-0.23421068
13	0x3e8f10d4	0.27942526
14	0xbdfb1c5b	-0.12261268
15	0x3ea3b70f	0.319756
16	0x3d77d387	0.060504463
17	0x3eb0d11e	0.34534544
18	0xbdc65fc5	-0.09686235
19	0x3d789982	0.06069327
20	0xbdf02dd4	-0.11727491
21	0x3d84dbb1	0.06487215
22	0x3c0bc02b	0.008529703
23	0x3c347a23	0.011015448
24	0xbc2535b2	-0.010083603
25	0xbdf39be7	-0.118949704
26	0xbe7aef2f	-0.24505304
27	0x3e9ae233	0.302507
28	0xbdaee0e9	-0.08538992
29	0xbe5cc95c	-0.21561188
30	0x3e2a84b0	0.16652179
31	0x3dec11f2	0.1152686
32	0x3e85a787	0.26104376
33	0x3e3bcba6	0.18339404
34	0xbdfe7539	-0.12424702
35	0xbd4239be	-0.04741835
36	0x3db4e044	0.08831838
37	0x3e563fec	0.20922822
38	0xbe412958	-0.18863428
39	0x3e5c925c	0.21540207
40	0xbe6484f9	-0.2231635
41	0x3dede7bd	0.11616466
42	0x3e3b2737	0.18276678
43	0xbe5cb16e	-0.21552059
44	0x3eb4a225	0.35279956
45	0xbeba9cc7	-0.36447737
46	0xbe37894f	-0.17923473
47	0xbe43a47c	-0.19105715
48	0x3df10a1c	0.11769506
49	0x3de111f8	0.109897554
50	0xbe70a997	-0.23502193
51	0x3eb30b72	0.3496967
52	0x3c4c4f3c	0.012470063
53	0xbe4bf354	-0.19917041
54	0x3d35bba9	0.04436842
55	0x3d97e8dd	0.07417462
56	0xbdef37e7	-0.116805844
57	0xbe24451b	-0.16041987
58	0xbe493b91	-0.19651629
59	0xbe855630	-0.26042318
60	0xbea56bfe	-0.32308954
61	0xbdcfb804	-0.1014252
62	0x3e49c833	0.19705276
63	0x3e52430e	0.20533392
64	0xbe8f84d1	-0.28031018
65	0x3ea4d1d9	0.3219135
66	0x3e649369	0.22321858
67	0x3e16e339	0.14735116
68	0xbd68eeb3	-0.056868266
69	0xbe836431	-0.25662377
70	0x3e514357	0.20435844
71	0xbe032000	-0.12805176
72	0xbe81c284	-0.25343716
73	0xbe13fc0b	-0.14451616
74	0xbdb8bbea	-0.09020217
75	0x3da32b05	0.0796719
76	0xbea04693	-0.31303844
77	0x3e849ffe	0.25903314
78	0xbe2cdf31	-0.16882016
79	0x3ea6d384	0.3258325
80	0x3e8db34b	0.27675852
81	0x3d30ad9f	0.043134328
82	0xbb82047a	-0.003967819
83	0xbe3b0afe	-0.18265912
84	0xbe4de919	-0.20108451
85	0xbe0206d7	-0.12697922
86	0x3e19209c	0.14953846
87	0x3e9d9daa	0.3078435
88	0x3d8318d7	0.06401222
89	0xbd2ce01c	-0.042205915
90	0x3e910ed9	0.2833164
91	0x3e9cbfcd	0.30615082
92	0xbe9a9e3b	-0.30198845
93	0x3c8a2681	0.016864063
94	0x3dbe0da7	0.09279948
95	0x3e7042c3	0.23462968
96	0x3e89304c	0.2679466
97	0x3e51fc28	0.20506346
98	0x3ea2e27e	0.31813425
99	0xbe32e2a5	-0.1746927
100	0xbcb86e0e	-0.022513416
101	0x3e79ef17	0.24407612
102	0x3c71f95a	0.014768923
103	0x3e10c493	0.14137487
104	0xbe764d8b	-0.24053018
105	0xbe31ae61	-0.17351677
106	0xbdbc9b5c	-0.0920932
107	0xbe23bac2	-0.15989211
108	0x3e9227f3	0.28546104
109	0x3ad7a1a9	0.0016451377
110	0xbda28395	-0.079352535
111	0xbe8f680f	-0.28009078
112	0x3d0bde16	0.034147345
113	0x3e9e65eb	0.30937132
114	0xbe5b3a06	-0.21408853
115	0xbd93db20	-0.07219529
116	0x3e3e94cf	0.18611453
117	0xbcd92781	-0.026508095
118	0x3e0c0766	0.13674697
119	0xbd8df28f	-0.0693103
120	0x3e8936f0	0.26799726
121	0x3e952109	0.29126766
122	0xbe16461a	-0.14675179
123	0x3ebaabbe	0.36459154
124	0xbd35382a	-0.044243015
125	0x3d873f0c	0.06603822
126	0xbd5a410c	-0.05328469
127	0x3dcb47e6	0.09925823
128	0x3dab0584	0.083506614
129	0x3dbddfaa	0.09271176
130	0xbe8f4a0d	-0.27986184
131	0x3d245f13	0.040129732
132	0xbe6c8ef9	-0.23101415
133	0xbd54a71a	-0.051917173
134	0xbda9ba1d	-0.082874514
135	0xbe99cd08	-0.3003924
136	0xbe834c26	-0.25644034
137	0xbc88cf95	-0.016700545
138	0x3e139545	0.1441241
139	0x3e89b84e	0.26898426
140	0x3b7af8d4	0.0038295286
141	0xbc612d31	-0.013743685
142	0x3e3593cb	0.1773216
143	0x3d3db174	0.04631181
144	0x3e86d32f	0.26332995
145	0xbe87c90d	-0.26520577
146	0xbeb0f730	-0.3456359
147	0x3ea4e24a	0.32203895
148	0xbd2a8d20	-0.041638494
149	0x3e8923ad	0.2678503
150	0xbdddfe3f	-0.10839509
151	0xbe6a335e	-0.22871158
152	0xbe077f58	-0.13232172
153	0xbd8c6517	-0.06855219
154	0x3d872448	0.06598717
155	0x3e83717c	0.2567252
156	0x3d363ce7	0.044491675
157	0x3e577bd9	0.21043338
158	0x3e6c4f0e	0.23077032
159	0xbdfaa344	-0.12238172
160	0x3e4f85e3	0.20265917
161	0xbdbbaed8	-0.09164208
162	0x3d23dcc7	0.04000547
163	0x3ebd9fc6	0.3703596
164	0x3e25e29e	0.16199729
165	0xbead11a5	-0.33802524
166	0xbe2fec58	-0.17180002
167	0x3e7fb63d	0.24971862
168	0x3e334d1a	0.1750988
169	0xbe422c32	-0.18962172
170	0x3d998cd1	0.07497562
171	0xbd2698ee	-0.04067319
172	0x3dc9e64a	0.09858377
173	0x3d833ce7	0.064081006
174	0xbe8d3c7b	-0.27585205
175	0x3d9da713	0.076978825
176	0x3e1ea245	0.15491588
177	0xbebec19c	-0.37257087
178	0xbab176f6	-0.0013539481
179	0x3b5e14e3	0.0033886961
180	0x3e3e3b79	0.18577375
181	0x3ea1c05f	0.3159208
182	0x3e66cdf9	0.2253951
183	0x3e222ccd	0.15837403
184	0xbe0ceb96	-0.13761744
185	0xbdcd771c	-0.10032484
186	0xbc0d2264	-0.008614156
187	0x3e820d60	0.2540083
188	0x3ec5baa5	0.3861896
189	0x3e9e9ab5	0.30977407
190	0xbd8f8ed4	-0.07009664
191	0x3e7f6f4d	0.24944802
192	0xbe17e843	-0.14834695
193	0xbdc95432	-0.09830512
194	0x3d26e7d6	0.04074844
195	0xbe85c5bd	-0.26127425
196	0xbe865b7b	-0.2624167
197	0xbd36ed5b	-0.044659954
198	0x3d41dba8	0.04732862
199	0x3c0f38b8	0.00874155
200	0xbd78279c	-0.06058465
201	0x3ea7d0df	0.32776543
202	0xbad2e5d8	-0.0016090227
203	0xbe77cca8	-0.24199164
204	0x3e73fd10	0.23827004
205	0x3e449712	0.19198254
206	0xbd5bd7ae	-0.053672485
207	0xbdacd679	-0.08439345
208	0x3e334be9	0.17509426
209	0x3dc36f84	0.09542754
210	0xbe9b1f34	-0.30297244
211	0xbdc3ee9a	-0.09566994
212	0x3d6a9700	0.05727291
213	0x3deeffbc	0.11669871
214	0x3db5793d	0.08861015
215	0x3e9ef67b	0.31047425
216	0xbe2bca02	-0.16776279
217	0xbe38fd6d	-0.18065424
218	0xbe4a66e8	-0.19765818
219	0xbe27d66a	-0.16390386
220	0x3e3c6b6d	0.18400355
221	0xbe59643c	-0.21229643
222	0xbb00cb4a	-0.001965242
223	0xbd2a5d5d	-0.041592944
224	0x3e32b856	0.17453131
225	0x3d946f50	0.07247794
226	0xbe612e8b	-0.21990411
227	0xbd0ee6e4	-0.034888163
228	0xbd4d4873	-0.05011792
229	0xbe97993d	-0.296091
230	0xbd022c76	-0.031780683
231	0xbde5c5ff	-0.112194054
232	0xbe447f20	-0.1918912
233	0xbe79d808	-0.24398816
234	0xbe267948	-0.16257203
235	0x3e49401e	0.19653365
236	0x3cdd6af1	0.027028533
237	0x3d663bdc	0.05620943
238	0x3da7fd22	0.08202578
239	0x3eb5ae21	0.35484412
240	0xbd5d20c7	-0.053986337
241	0x3e4b6ce4	0.19865757
242	0x3ebaf7e6	0.36517256
243	0x3d87b725	0.06626729
244	0x3d9ce7c7	0.076613955
245	0x3dca96f8	0.09892076
246	0x3e1206e7	0.14260446
247	0xbe212633	-0.15737228
248	0xbe4b7ad1	-0.1987107
249	0xbe62539c	-0.22102207
250	0x3e2434e2	0.16035798
251	0xbe46b850	-0.19406247
252	0x3ded6582	0.11591627
253	0x3e65087c	0.22366518
254	0x3dccce4d	0.10000286
255	0x3e5b9e18	0.21447027

layers.0.bias f4 [64]
0	0xbe3f7e8b	-0.18700616
1	0x3e488870	0.19583297
2	0xbe3ba895	-0.18326028
3	0xbe3081d6	-0.17237028
4	0xbd6ec3e8	-0.0582923
5	0xbe49a41c	-0.19691509
6	0xbb1ae9dd	-0.0023637929
7	0xbdf01ebc	-0.11724612
8	0x3e049674	0.12948018
9	0xbd71e622	-0.059057362
10	0xbea39e8e	-0.31956905
11	0xbe7e4f4a	-0.24834934
12	0x3da28926	0.07936315
13	0x3cc485d3	0.023989594
14	0xbd8fd1ef	-0.070224635
15	0xbd11a707	-0.03555968
16	0x3ddbc770	0.10731399
17	0x3dc371f6	0.09543221
18	0x3ea35640	0.3190174
19	0xbe8ef3b7	-0.27920315
20	0x3e760160	0.24023962
21	0x3d60f3f7	0.054920163
22	0x3e713d47	0.23558532
23	0x3dcabb74	0.09899035
24	0xbe5d9eec	-0.21642655
25	0xbe3386ea	-0.17531934
26	0xbe46e449	-0.19423021
27	0x3e5ec07a	0.21753111
28	0xbe289b79	-0.16465558
29	0xbd82d056	-0.06387393
30	0x3cba83bb	0.022767892
31	0xbd87e3de	-0.06635259
32	0xbe2fdc9d	-0.17174001
33	0xbe8e8efd	-0.27843466
34	0x3e5b6fef	0.21429418
35	0xbe8d029d	-0.27541056
36	0xbdb81ab3	-0.089894675
37	0xbe5b7e45	-0.21434887
38	0x3df9a92b	0.12190469
39	0xbeaeadd8	-0.34117007
40	0xbea5a4c2	-0.32352263
41	0x3e5b755e	0.21431491
42	0x3cb7a2e1	0.022416534
43	0xbe1a2172	-0.15051821
44	0xbe162a95	-0.14664681
45	0xbe101ef5	-0.14074309
46	0x3dfdf65d	0.12400506
47	0xbebad504	-0.36490643
48	0xbe9cdd39	-0.3063753
49	0x3d5a538e	0.05330234
50	0x3d5d0a13	0.053964686
51	0xbe3e04ec	-0.18556565
52	0xbe7d04c6	-0.24708852
53	0x3d674a6e	0.056467466
54	0x3e29be3e	0.16576478
55	0x3d1f61dd	0.03891169
56	0x3e6273ed	0.22114535
57	0x3d1c85f8	0.0382137
58	0x3ea7bb9d	0.32760325
59	0xbc64fd14	-0.013976354
60	0x3e5e3205	0.21698768
61	0x3e4b3eff	0.1984825
62	0xbe8d805f	-0.27637002
63	0xbeb414ec	-0.35172212

layers.2.weight f4 [64, 64]
0	0x3d76abf6	0.06022259
1	0x3d1c25d7	0.038122024
2	0x3d5dc9e2	0.05414761
3	0xbdb5ab55	-0.088705696
4	0x3d323ddc	0.043516025
5	0xbdbb1317	-0.091345005
6	0x3cc3ea34	0.023915388
7	0x3cc85a7e	0.024457213
8	0x3d5001c4	0.050782934
9	0xbcf314c2	-0.029672984
10	0xbd83d644	-0.06437352
11	0x3ca0d034	0.019630529
12	0xbda0cbe4	-0.07851389
13	0xbcf8d8ff	-0.03037691
14	0x3d67b37a	0.056567647
15	0xbd3e7675	-0.04649969
16	0x3c7bd7c9	0.015371271
17	0x3d9ed45b	0.07755347
18	0x3d84cde7	0.06484585
19	0xbd8651fe	-0.065586075
20	0xbd719f76	-0.058989964
21	0xbd9d18fc	-0.07670781
22	0xbbfa77ab	-0.00764366
23	0xbd8c02a0	-0.06836438
24	0xbd740a32	-0.059580036
25	0x3cf32327	0.029679848
26	0xbb9fd03a	-0.0048771175
27	0xbd0644b2	-0.032780357
28	0x3ceb778f	0.028743533
29	0xbd952cfa	-0.07283969
30	0x3ba246b2	0.004952275
31	0xbd1fbca5	-0.038998265
32	0xbdbb66b8	-0.091504514
33	0x3d2ca722	0.042151578
34	0xbd371c53	-0.044704746
35	0x3d344ff8	0.044021577
36	0x3d061562	0.032735236
37	0x3cd74aac	0.026280724
38	0xbc70ae3f	-0.014689981
39	0xbd8b6ac3	-0.068074726
40	0x3cc014f6	0.023447495
41	0xbd6aa1f1	-0.057283346
42	0x3d4106f0	0.047125757
43	0xbd912dc3	-0.070888065
44	0xbdc69130	-0.09695661
45	0x3d27bbed	0.040950704
46	0xbd431577	-0.047627892
47	0xbdd7f16a	-0.10544093
48	0x3da3195b	0.079638205
49	0x3d1b1219	0.037859056
50	0x3d1adfae	0.037810974
51	0xbd169f75	-0.036773164
52	0xbce52d58	-0.027975723
53	0xbd9d0f23	-0.07668903
54	0xbc947581	-0.018122436
55	0x3c29d4ce	0.010365678
56	0xbd96fbf4	-0.07372275
57	0xbc665624	-0.014058623
58	0xbd8791f8	-0.06619638
59	0xbd963a62	-0.073353544
60	0x3dc5b7e9	0.09654219
61	0xbd876674	-0.06611338
62	0x3c4ff24c	0.012692045
63	0xbd3520ab	-0.044220608
64	0xbc6973a8	-0.014248766
65	0xbcb829f7	-0.022480948
66	0x3d3a4adf	0.04548156
67	0xbd897d26	-0.06713323
68	0x3cd48b8b	0.025945446
69	0x3cf3d7ff	0.02976608
70	0x3d17a710	0.037024558
71	0x3c4724db	0.012154783
72	0xbd84c441	-0.06482745
73	0x3d1e846f	0.038700517
74	0x3da75015	0.08169571
75	0x3d91814b	0.07104739
76	0xbbb2ea02	-0.005460025
77	0x3c921429	0.017831879
78	0xbd269755	-0.040671665
79	0xbdf020a4	-0.11724976
80	0x3dd9aba6	0.106284425
81	0x3d8264e0	0.06366897
82	0x3de151ad	0.110019065
83	0xbc88362b	-0.016627392
84	0xbd9513a6	-0.07279138
85	0x3d1f4325	0.038882393
86	0xbd37cd38	-0.044873446
87	0x3dcdb101	0.100435264
88	0x3d322429	0.043491516
89	0x3d8355a5	0.0641282
90	0x3d13d7c3	0.03609444
91	0x3dc99db8	0.098445356
92	0x3d67a658	0.056555122
93	0x3d2e12b8	0.04249832
94	0xbd8acda3	-0.06777503
95	0xbdc0df89	-0.09417636
96	0x3d8f2c6b	0.06990894
97	0xbda812d8	-0.08206719
98	0x3d60c786	0.05487778
99	0xbd9db526	-0.07700567
100	0xbd092fce	-0.033492856
101	0xbd400066	-0.04687538
102	0x3ca9552f	0.020670502
103	0x3d5a79d2	0.053338833
104	0xbdb43f82	-0.08801176
105	0xbd195dd8	-0.037443012
106	0xbb36e309	-0.002790632
107	0xbd27c93c	-0.040963396
108	0x3d07477b	0.033027153
109	0xbd818065	-0.063233174
110	0x38129013	3.4943292e-05
111	0xbd1a1e99	-0.037626836
112	0x3d3c101e	0.045913808
113	0x3d8eaa83	0.06966116
114	0x3d21f862	0.039543517
115	0xba9e4fcb	-0.0012078224
116	0x3cd65d7c	0.026167624
117	0xbd9367f8	-0.07197565
118	0xbce79c72	-0.028272841
119	0xbd4749d4	-0.048654392
120	0xbd905fb1	-0.07049502
121	0x3d29a693	0.041418623
122	0x3d896c0f	0.06710064
123	0x3d902cef	0.070398204
124	0x3cfe8b21	0.031072201
125	0x3dbd6db0	0.09249437
126	0x3c7c910e	0.015415443
127	0x3d9435a3	0.07236793
128	0xbd01a964	-0.031655684
129	0xbdb33117	-0.087495975
130	0xbb738814	-0.0037159966
131	0xbc362da4	-0.01111928
132	0x3cb3c825	0.021946022
133	0x3d6d0008	0.057861358
134	0x3d3e6ae9	0.046488676
135	0xbd232e87	-0.039839294
136	0xbd41ec9d	-0.047344793
137	0x3cbef20f	0.023308782
138	0xbd9a3d25	-0.07531194
139	0x3d4971a1	0.04918063
140	0xbd91d073	-0.07119837
141	0x3d43b875	0.047783334
142	0xbd69a6c7	-0.057043817
143	0x3daaaa8d	0.08333311
144	0x3aebf926	0.0018003329
145	0xbba7798f	-0.0051109265
146	0x3d3b7728	0.045767933
147	0xbc45a6cb	-0.012063692
148	0x3dc26fdf	0.09493994
149	0x3d8592f3	0.06522169
150	0xbd6fb93b	-0.05852626
151	0xbd4822cb	-0.048861306
152	0x3dafb472	0.08579339
153	0xbd893986	-0.06700425
154	0x3d3e0f75	0.04640146
155	0xbc63043e	-0.013855992
156	0xbdac6fef	-0.08419787
157	0xbdaf88d2	-0.08571018
158	0x3dac8d9d	0.08425448
159	0x3d8b68bf	0.06807088
160	0xbaed1164	-0.0018086848
161	0xbb734d5a	-0.0037124963
162	0xbd91662c	-0.07099566
163	0x3da3b93f	0.07994317
164	0xbd12ea0e	-0.035867743
165	0xbd3b040f	-0.045658167
166	0xbdafd8f9	-0.08586306
167	0xbd5205bb	-0.051274996
168	0xbd830550	-0.06397498
169	0xbcb28ea5	-0.021796534
170	0x3dc21784	0.094771415
171	0xbcc48248	-0.023987904
172	0xbd960d33	-0.07326736
173	0x3c59b93a	0.01328879
174	0x3d56d776	0.052451573
175	0xbcff83c8	-0.031190768
176	0x3d8e944b	0.069618784
177	0xbcb35f4b	-0.021896025
178	0xbccaaf77	-0.024741871
179	0x3d7fbb7c	0.06243466
180	0x3dc8c25b	0.09802695
181	0x3bc3139b	0.005953265
182	0x3d8d5e67	0.069027714
183	0x3c1ab9b1	0.009443686
184	0x3d82b6a8	0.06382495
185	0x3ca34b30	0.019933313
186	0x3ba42db7	0.0050103324
187	0xbb993e8a	-0.0046766447
188	0x3aa1371e	0.0012299751
189	0xbd782daa	-0.060590424
190	0x3b411605	0.0029462588
191	0xbd3ad628	-0.04561439
192	0xbcadd6ed	-0.021220649
193	0x3d1d2a4c	0.038370416
194	0x3cb821b0	0.022477001
195	0x3d89ec1b	0.06734487
196	0x3d573247	0.052538183
197	0xbd63a4ec	-0.055577204
198	0x3d8cdb50	0.06877768
199	0x3dd940f7	0.10608094
200	0x3d4bd697	0.049765196
201	0xbd55a248	-0.052156717
202	0xbc6d3b5b	-0.0144794835
203	0xbd915fdb	-0.07098361
204	0xbafe26dc	-0.0019390243
205	0x3d957a42	0.072987095
206	0x3c9cacea	0.01912542
207	0x3ce9c656	0.028536957
208	0x3ca2276c	0.019794188
209	0x3bc801ea	0.006103744
210	0x3b114ccf	0.0022171026
211	0xbc33db73	-0.010977614
212	0x3d6d086e	0.057869367
213	0xbcd686ff	-0.026187418
214	0xbd0c00f9	-0.034180615
215	0xbd083bb1	-0.03326005
216	0xbd9c1dad	-0.07622848
217	0x3c0be584	0.0085386075
218	0xbdb4bec0	-0.08825445
219	0xbce44fb2	-0.027870033
220	0xbd8488a5	-0.064713754
221	0xbd968b41	-0.07350779
222	0xbda00f81	-0.07815457
223	0x3daac482	0.08338262
224	0x3d86e4f3	0.06586637
225	0xbd8f78e7	-0.07005482
226	0x3cc70107	0.024292482
227	0x3d7443c7	0.05963495
228	0x3c4209b7	0.0118431365
229	0xbbe8301e	-0.007085814
230	0x3d0b8cfa	0.034069993
231	0x3c741019	0.014896416
232	0x3c83e359	0.016099619
233	0xbcdc06c9	-0.026858704
234	0xbd8839d4	-0.06651655
235	0x3d79c0f3	0.060975026
236	0x3d40fe8d	0.04711776
237	0x3d8c005a	0.068360046
238	0x3d8c7e35	0.068600096
239	0x3cd2aab8	0.02571617
240	0xbda766b8	-0.08173889
241	0x3981a57e	0.000247281
242	0x3ddc89c6	0.10768466
243	0xbd4ce39a	-0.050021745
244	0x3dabad4a	0.08382662
245	0x3bca23ae	0.006168804
246	0x3d946369	0.072455235
247	0xbd9e360a	-0.07725151
248	0xbd992f76	-0.074797556
249	0xbd6fc19d	-0.058534253
250	0xbcec983f	-0.02888119
251	0x3dbd63d8	0.09247559
252	0x3b6d9645	0.0036252898
253	0x3c7d7e6b	0.015472035
254	0xbda4ec1c	-0.08052847
255	0x3dddb483	0.108254455

layers.2.bias f4 [64]
0	0xbceda285	-0.02900816
1	0x3db1044e	0.08643399
2	0x3daf7981	0.08568097
3	0x3dad5bd9	0.08464784
4	0xbc5e3300	-0.013561964
5	0xbd0f4a98	-0.034983248
6	0xbd0580e4	-0.032593623
7	0xbaed119e	-0.0018086915
8	0x3d1d7619	0.038442705
9	0xbc33926d	-0.010960204
10	0x3dc42305	0.09576992
11	0xbda88b56	-0.08229701
12	0x3a481430	0.00076324027
13	0xbd9615eb	-0.07328399
14	0xbdbc1cb1	-0.0918516
15	0x3c2b6cfa	0.010462994
16	0x3d8e7d0f	0.06957447
17	0x3cf96144	0.030441888
18	0xbdcf0740	-0.10108805
19	0x3d0a8e4b	0.033827107
20	0xbcd308c1	-0.02576101
21	0xbbfbece6	-0.0076881526
22	0xbb94b7ce	-0.004538513
23	0x3cb97ca8	0.022642449
24	0xbca75875	-0.020427922
25	0x3d31d208	0.043413192
26	0xbddf9b39	-0.10918278
27	0xbc93bd43	-0.018034583
28	0x3dad56b6	0.084638044
29	0x3c90fff0	0.017700166
30	0xbda718a6	-0.08158998
31	0xbc793b9b	-0.015211965
32	0x3d7a3e60	0.06109464
33	0xbde6688f	-0.11250412
34	0xbc278bab	-0.0102261705
35	0x3dea3343	0.11435559
36	0xbd2154cb	-0.039387506
37	0xbc170150	-0.0092166215
38	0xbd683f74	-0.05670114
39	0xbce8e6b9	-0.02843033
40	0xbd4ba5d1	-0.04971868
41	0xbc095cdc	-0.008383956
42	0x3d8fad23	0.07015445
43	0xbdbaaa48	-0.0911451
44	0x3d75b4fa	0.059987046
45	0xbcb92fc4	-0.022605784
46	0x3d564cef	0.052319463
47	0x3daf607d	0.085633256
48	0x3da573ff	0.08078765
49	0xbda10801	-0.07862855
50	0xbdb35352	-0.087561265
51	0xbd956324	-0.072943
52	0xbd6cb9ef	-0.057794508
53	0xbd823de8	-0.06359464
54	0x3d5832aa	0.052782692
55	0xbda48f88	-0.08035189
56	0x3c8786a7	0.0165437
57	0x3daf6d11	0.08565725
58	0xbdbbe216	-0.09173982
59	0xbdd73c1f	-0.10509514
60	0xbd9951b5	-0.074862875
61	0x3d99aca1	0.075036295
62	0xbd971d87	-0.07378679
63	0xbce6d215	-0.028176347

layers.4.weight f4 [81, 64]
0	0x3d9746b6	0.07386534
1	0xb8c11ade	-9.2079616e-05
2	0x3c19b355	0.009381135
3	0xbc2e877d	-0.01065242
4	0x3c989e28	0.018630102
5	0x3d84a696	0.06477086
6	0x391e008d	0.0001506826
7	0x3d4ef2b3	0.050524425
8	0x3d8de824	0.06929043
9	0xbd05262d	-0.03250711
10	0xbdb40fb9	-0.08792061
11	0xbd8db7bb	-0.069198094
12	0x3d8218fb	0.06352421
13	0xbd425cc0	-0.047451735
14	0xbd2b40a4	-0.041809693
15	0xbd877ed4	-0.066159874
16	0xbd7ab2ed	-0.061205793
17	0xbdd702cf	-0.104985826
18	0x3dc6a889	0.09700114
19	0xbc3c23e5	-0.011483167
20	0xbdb0dc36	-0.08635752
21	0xbd3d9641	-0.04628587
22	0x3d167bf5	0.03673931
23	0xbd92883c	-0.07154891
24	0xbd99590c	-0.074876875
25	0x3dba0138	0.09082264
26	0xbcc5f5ff	-0.024165152
27	0x3d6b8b09	0.05750564
28	0x3d6b8252	0.05749733
29	0xbda1f7ab	-0.07908567
30	0xbced600c	-0.028976463
31	0xbce59a5e	-0.02802771
32	0x3dbe4cc1	0.092919834
33	0x3da191d6	0.07889144
34	0x3de01ffa	0.10943599
35	0x3c6c40c6	0.01441974
36	0xbd9a0cac	-0.07521948
37	0x3d51fa87	0.051264312
38	0xbd6a53d6	-0.05720886
39	0xbd668ceb	-0.056286734
40	0xbda8a2f7	-0.08234208
41	0x3d90fa5e	0.07079004
42	0x3cbc0172	0.022949908
43	0x3d543132	0.05180473
44	0x3db9de46	0.090755984
45	0x3d250d3d	0.040295828
46	0xbd3b0d9f	-0.045667287
47	0xbcae7948	-0.021298066
48	0x3c459d1f	0.012061386
49	0xbd8458c9	-0.06462247
50	0x3c776086	0.015098697
51	0xbc7705ac	-0.015077036
52	0xbc434343	-0.011917892
53	0xbd3868e9	-0.045021925
54	0xbd1095c6	-0.035299085
55	0x3ddf8b01	0.10915185
56	0x3c932780	0.017963171
57	0x3ce04c8a	0.027380247
58	0xbcfbdb35	-0.030744174
59	0xb92b7eb5	-0.00016355033
60	0x3cd35a1f	0.025799809
61	0xbd9c6acd	-0.07637558
62	0x3dc9af1d	0.09847853
63	0xbdb4b8a3	-0.08824279
64	0xbc969309	-0.018380659
65	0xbd006ae4	-0.03135194
66	0x3d73d89c	0.059532747
67	0xbcf1eeeb	-0.02953287
68	0xbdd66dfe	-0.10470198
69	0xbd99c994	-0.07509151
70	0x3d843223	0.06454875
71	0x3c38488f	0.011247768
72	0xbdad5d34	-0.08465043
73	0xbda8c7a7	-0.08241206
74	0xbd2774b6	-0.04088279
75	0x3d5b7703	0.053580295
76	0xbdcdeecb	-0.10055312
77	0x3d2c3a36	0.0420477
78	0x3da9d5fb	0.08292767
79	0xbd206263	-0.03915633
80	0xbd9d7c53	-0.076897286
81	0xbd7b88c9	-0.061409745
82	0xbd2bb510	-0.04192072
83	0xbc8db92d	-0.017300213
84	0xbd51b097	-0.0511938
85	0xbd9a89a8	-0.07545787
86	0xbc67bd08	-0.01414419
87	0x3d20122c	0.03907983
88	0xbd67bff2	-0.056579538
89	0x3d4d7588	0.050160915
90	0xbd8cd165	-0.06875876
91	0xbceb86c1	-0.02875078
92	0xbde7b5ef	-0.11313998
93	0x3d832f21	0.064054735
94	0x3ca38c85	0.019964466
95	0xbd4c40d3	-0.04986651
96	0xbd2dc8fe	-0.04242801
97	0xbdc28398	-0.09497756
98	0xbdc74bc4	-0.09731248
99	0xbdce2c61	-0.10067058
100	0xbda385e5	-0.07984523
101	0xbd1ccc67	-0.03828087
102	0x3bf59fa9	0.0074958396
103	0x3cddfc52	0.027097855
104	0xbd98fc4d	-0.074699976
105	0xbda35f3d	-0.0797715
106	0x3d2ed72a	0.042685665
107	0xbd0fd437	-0.035114493
108	0xbce5e65f	-0.028063951
109	0xbd7fa12c	-0.062409565
110	0x3c952511	0.018206151
111	0xbc1c8f79	-0.009555691
112	0x3d99e7d9	0.075149246
113	0x3d331143	0.043717634
114	0x3dae269e	0.085034594
115	0xbc91472c	-0.017734133
116	0xbd25553c	-0.04036449
117	0xbd095db7	-0.03353664
118	0x3b917718	0.004439246
119	0xbb1ea434	-0.002420676
120	0xbdd2be47	-0.10290199
121	0x3dbbd838	0.091721
122	0xbddc0bd0	-0.107444406
123	0x3d31c552	0.04340107
124	0xbd2f5d75	-0.042813737
125	0x39d021ea	0.0003969812
126	0xbd946468	-0.072457135
127	0xbd1a66e8	-0.037695795
128	0x3cf85e26	0.030318331
129	0xbd8d4c67	-0.06899338
130	0x3b8f37b0	0.004370652
131	0x3c1289dd	0.008944002
132	0xbcd2cd6f	-0.025732724
133	0xbd25beef	-0.04046529
134	0x3b90fa69	0.0044243825
135	0x3bf67032	0.007520699
136	0xbc7f2b4a	-0.015574286
137	0xbd8f279e	-0.06989978
138	0xbdb14590	-0.08655846
139	0x3d9c822a	0.07642014
140	0x3db4dddc	0.08831379
141	0x3d128617	0.03577241
142	0xbd0ec44b	-0.03485517
143	0x3d174300	0.03692913
144	0xbd6d3b54	-0.057917908
145	0xbdde38fd	-0.108507134
146	0xbd375b15	-0.044764597
147	0xbd0de881	-0.03464556
148	0x3cbc2de5	0.022971103
149	0x3c3d8492	0.011567252
150	0x3c4fd3d2	0.012684779
151	0xbc35681f	-0.011072188
152	0x3da6d699	0.081464
153	0x3dd60d3e	0.104517445
154	0xbde21bc1	-0.1104045
155	0xbc59d77f	-0.013296007
156	0x3d9ec15d	0.07751725
157	0x3d9590cf	0.07303011
158	0xbcf052ff	-0.02933645
159	0xbd5099cb	-0.05092792
160	0x3dba322c	0.09091601
161	0xbd67b7aa	-0.05657164
162	0xbdbd4ca9	-0.092431374
163	0xbd3a58b8	-0.045494765
164	0xbd91f83a	-0.071274236
165	0x3d26b84e	0.04070311
166	0x3ce86571	0.028368684
167	0xbdc9e29c	-0.098576754
168	0x39029f10	0.00012457022
169	0x3d1363f7	0.035984006
170	0xbdd745b8	-0.10511345
171	0x3d9d55e5	0.07682399
172	0x3c64ac9d	0.01395717
173	0x3de78326	0.113043115
174	0xbc46d126	-0.012134826
175	0xbd87245a	-0.065987304
176	0x3dd94b67	0.10610085
177	0xbd201a4b	-0.039087575
178	0x3c8a38ab	0.016872725
179	0x3d3902d3	0.04516871
180	0xbda0ebec	-0.078574985
181	0xbd45b797	-0.048270788
182	0xbda2515b	-0.079256736
183	0xbd852614	-0.065014035
184	0x3d835eac	0.064145416
185	0x3d273c11	0.04082877
186	0xbc212787	-0.009836084
187	0x3cc8a811	0.024494203
188	0x3d07cc08	0.033153564
189	0x3d5b3e58	0.053526253
190	0xbbe259c5	-0.006907674
191	0x3cd88db9	0.026434766
192	0x3d173189	0.036912475
193	0x3cae7512	0.021296058
194	0xbcfdef6f	-0.03099796
195	0x3d9d67a0	0.076857805
196	0xbc92b65b	-0.01790922
197	0x3c50c927	0.012743271
198	0xbdb10e19	-0.08645267
199	0xbc5444e4	-0.012955878
200	0x3cd3db78	0.025861487
201	0x3d92889d	0.07154963
202	0x3d46fafd	0.048579205
203	0x3c51d14b	0.012806247
204	0x3ca4c04e	0.02011123
205	0x3d28c82a	0.041206516
206	0x3dc2af98	0.09506148
207	0x3dd69f8a	0.104796484
208	0x3ce9a64f	0.028521685
209	0x3c8bb44c	0.017053746
210	0xbcf61d08	-0.03004314
211	0xbdd71d8f	-0.10503685
212	0x3c1da8c3	0.009622755
213	0xbd33377a	-0.04375408
214	0xbddf487b	-0.109024964
215	0x3daf4996	0.08558957
216	0x3d5512bb	0.052019816
217	0xbd4b5022	-0.049636967
218	0x3cae405b	0.021270921
219	0xbd41b6de	-0.047293536
220	0xbc96c7f3	-0.01840589
221	0xbc3d929f	-0.011570602
222	0x3caac98a	0.020848054
223	0xbd19bd25	-0.037533898
224	0x3ce540df	0.027985035
225	0x3c493fc9	0.012283274
226	0x3d5e0e9c	0.05421315
227	0xbdb71041	-0.08938647
228	0x3de7eadc	0.11324093
229	0x3ccf2eda	0.025290895
230	0x3dbae446	0.09125571
231	0x3d99815f	0.07495379
232	0x3d2d6d34	0.042340472
233	0x3d9190ee	0.07107721
234	0x3d48bd3c	0.049008593
235	0xbda00490	-0.0781337
236	0xbcede4e4	-0.029039808
237	0x3da72e6b	0.081631504
238	0x3d7e6931	0.062112037
239	0x3d0ec2d1	0.03485376
240	0xbb792092	-0.0038013798
241	0x3c906849	0.017627852
242	0x39e00abe	0.00042732613
243	0x3ca5632e	0.020188894
244	0x3d67f486	0.05662968
245	0xbcd3af3f	-0.0258404
246	0x3da34689	0.07972438
247	0x3cd081c7	0.025452508
248	0x3d50d0b4	0.050980285
249	0x3c9bad61	0.019003572
250	0x3cd1c4bb	0.025606504
251	0xbdfaff68	-0.12255746
252	0xbd69cedd	-0.057082046
253	0xbdc9ff2c	-0.09863123
254	0x3cfa96ff	0.030589579
255	0x3d9cbb79	0.07652945

layers.4.bias f4 [81]
0	0x3d4f57f2	0.05062098
1	0x3dc40bf3	0.09572592
2	0xbcba5d6e	-0.022749629
3	0x3db19715	0.08671395
4	0x3dae58e9	0.08513052
5	0x3cc96507	0.024584306
6	0xbda45870	-0.080246806
7	0x3d0e74b8	0.03477928
8	0xbcdae642	-0.026721124
9	0x3d20cb2c	0.03925626
10	0x3b068ef6	0.0020531989
11	0xbda7da38	-0.08195919
12	0x3cae36a2	0.021266285
13	0xbbd7b1db	-0.0065824813
14	0x3ccf96f5	0.025340537
15	0xbd214b54	-0.03937848
16	0xbaf43a2b	-0.0018633058
17	0xbda73efd	-0.08166311
18	0xbda231c9	-0.07919652
19	0xbc83d8b6	-0.016094547
20	0xbd764488	-0.06012395
21	0x3d15fe38	0.036619395
22	0x3da2a006	0.07940678
23	0x3d372868	0.04471627
24	0x3c9ff910	0.019527942
25	0xbcbc2db1	-0.022971006
26	0xbc8dd165	-0.017311761
27	0xbd027998	-0.031854242
28	0x3d96a7f5	0.07356254
29	0xbd801879	-0.06254668
30	0x3d80bb71	0.062857516
31	0xbd36e5db	-0.0446528
32	0xbc4de08e	-0.012565745
33	0xbd04f9b4	-0.032464698
34	0xbce24286	-0.027619611
35	0xbaf5753e	-0.0018726957
36	0x3d72b4b7	0.059254374
37	0x3c23b08b	0.009990822
38	0xbd516406	-0.05112078
39	0xbd5f3d54	-0.054501846
40	0x3c15cd65	0.009143208
41	0xbda86271	-0.08221901
42	0xbd2a4a04	-0.041574493
43	0xbdb378ba	-0.08763261
44	0xbd00eda2	-0.031476624
45	0xbc082579	-0.008309715
46	0xbd8fa48f	-0.07013809
47	0xbcd69f8a	-0.026199121
48	0x3d8ea5a6	0.06965189
49	0x3b3a3f9e	0.0028419266
50	0xbd0b58de	-0.034020297
51	0xbd76001e	-0.060058706
52	0x3d96004d	0.07324276
53	0x3dddf29a	0.10837288
54	0xbd5fd846	-0.054649614
55	0x3ad6595e	0.0016353538
56	0xbdcd115f	-0.10013079
57	0x3c80507e	0.015663382
58	0x3d34921c	0.044084653
59	0x3b95bede	0.0045698723
60	0xbdc46200	-0.095890045
61	0xbd163f99	-0.036681745
62	0x3d202ab0	0.03910321
63	0xbbe3d164	-0.0069524515
64	0x3dad5890	0.084641576
65	0x3c118eac	0.008884113
66	0x3cd4bcf7	0.025969012
67	0xbd8fed8d	-0.07027731
68	0x3d8d36c4	0.06895211
69	0xbc4d7974	-0.012541164
70	0x3da66ef3	0.08126631
71	0xbdb8d222	-0.09024455
72	0xbc231580	-0.0099538565
73	0xbdaf5c9f	-0.08562588
74	0xbd896687	-0.06709009
75	0xbe0163e0	-0.12635756
76	0x3c5e53b9	0.013569766
77	0x3dcc8af8	0.09987444
78	0xbd67e94c	-0.056618974
79	0xbd66115c	-0.0561689
80	0xbcf40ed4	-0.029792227
